demo/m6Anet/demo_params.pth (torch, 35777 bytes, 10 tensors)

embed.weight f4 [66, 2]
0.08061093 1.0862572 -2.6816633 2.8453252 7.23834 -5.727919 1.2515479 -1.550113
-1.5995338 1.086284 -2.7955916 -4.804446 7.1827855 3.3519797 1.1211184 2.4317958
-4.236194 -2.294349 -6.68445 0.4081093 2.2324824 1.9929918 2.9963684 7.3039713
3.807209 5.689347 -7.7531595 -0.7255019 4.0535536 5.194844 -0.76540416 -6.2925253
-0.14252172 1.027905 -6.2078 -1.12833 1.0547628 2.6559129 -3.0861688 -1.5314301
0.47384554 -3.9107172 2.5740924 -0.77510804 2.9786162 -1.6583892 1.6417476 0.81637096
-0.88148904 -9.090841 -1.1359917 -0.4587971 0.58408976 -5.3889685 3.5488248 -3.3836157
-4.432422 2.0187259 0.077651724 -3.0346358 -0.07330184 10.806143 -2.7554731 0.12418474
-2.1188304 -1.866813 -2.6662943 3.3634942 3.5679467 -3.400038 -4.8782816 -1.2076012
-2.0756392 -5.886567 -2.9306238 -3.7824054 -0.5561883 -2.2329412 5.2979074 2.8637135
4.0630198 10.86391 -2.7626553 1.1966074 -2.8656638 -2.1160526 3.2536325 -4.6605325
-1.843498 4.3799314 1.6327039 -2.9811742 -4.106995 -3.912898 0.90692973 5.5003276
1.385382 -1.5792975 -3.6600845 -2.6245701 -0.725217 -2.1781225 -8.640852 2.2003448
-0.24720445 -6.610767 -2.2140467 3.6266494 -3.817453 0.57440865 7.2777467 7.4643917
4.632927 10.685615 2.8011427 2.5846522 4.3841534 2.057492 2.1184056 -2.3551533
-7.3710794 -4.4175434 6.0102797 0.8303426 2.3556705 5.5210075 -0.60540676 -3.7758512
-2.1892908 0.3424082 -2.9615207 5.9712567
00000000: 5817 a53d 7a0a 8b3f 5fa0 2bc0 cf19 3640
00000010: 7ba0 e740 1d4b b7c0 b932 a03f 1a6a c6bf
00000020: 86bd ccbf 5b0b 8b3f f9ea 32c0 06be 99c0
00000030: 61d9 e540 d686 5640 cf80 8f3f 8ba2 1b40
00000040: e78e 87c0 9dd6 12c0 04e7 d5c0 b4f3 d03e
00000050: fee0 0e40 5b1a ff3f 80c4 3f40 22ba e940
00000060: 50a9 7340 210f b640 e219 f8c0 7eba 39bf
00000070: b6b6 8140 293c a640 87f1 43bf 5e5c c9c0
00000080: 37f1 11be 6492 833f 4ca6 c6c0 1e6d 90bf
00000090: 7802 873f 7afa 2940 ca83 45c0 e705 c4bf
000000a0: e29b f23e 3149 7ac0 eebd 2440 7b6d 46bf
000000b0: a6a1 3e40 1946 d4bf c924 d23f b0fd 503f
000000c0: 44a9 61bf 1674 11c1 2d68 91bf 74e7 eabe
000000d0: e886 153f 6e72 acc0 f21f 6340 298d 58c0
000000e0: 67d6 8dc0 ce32 0140 de07 9f3d 7937 42c0
000000f0: 461f 96bd f6e5 2c41 ac59 30c0 9254 fe3d
00000100: eb9a 07c0 baf3 eebf 91a4 2ac0 7d43 5740
00000110: 3d59 6440 399a 59c0 e21a 9cc0 ad92 9abf
00000120: 46d7 04c0 c25e bcc0 578f 3bc0 ee12 72c0
00000130: 5b62 0ebf 82e8 0ec0 7588 a940 1547 3740
00000140: 4204 8240 93d2 2d41 58cf 30c0 6e2a 993f
00000150: 0967 37c0 686d 07c0 843b 5040 1523 95c0
00000160: bef7 ebbf 6628 8c40 71fc d03f 8fcb 3ec0
00000170: 816c 83c0 ec6c 7ac0 8c2c 683f af02 b040
00000180: 3354 b13f 6c26 cabf d33e 6ac0 f5f8 27c0
00000190: d2a7 39bf 5c66 0bc0 ee40 0ac1 73d2 0c40
000001a0: 2a23 7dbe 678b d3c0 f1b2 0dc0 061b 6840
000001b0: 2651 74c0 720c 133f 4de3 e840 4cdc ee40
000001c0: f040 9440 47f8 2a41 ec45 3340 f16a 2540
000001d0: fc4a 8c40 f3ad 0340 f593 0740 d5ba 16c0
000001e0: e2df ebc0 845c 8dc0 3654 c040 5591 543f
000001f0: 4ec3 1640 18ac b040 f0fb 1abf 8ca7 71c0
00000200: 571d 0cc0 2150 af3e 8e89 3dc0 8914 bf40

read_level_prob_1.weight f4 [150, 15]
-5.081029 -0.81346714 1.5863258 -61.77078 -0.61510444 3.024516 -9.651736 -1.7069014
0.9878649 -6.501084 0.32476526 4.881668 -1.444993 -4.519998 -4.613663 7.137694
-0.0076749297 -0.43463874 11.208141 1.1975632 -0.3989693 4.1443543 2.8687818 0.52154034
1.7376211 2.4362662 -0.31185356 0.1889984 -1.6849914 -4.2682366 15.735993 -0.17658375
0.6810574 -184.77493 -1.3572454 -4.5000944 48.080654 -8.639355 -0.98117477 2.4695606
-1.1895214 4.309234 -2.482163 -1.7026074 3.9091504 -5.103506 -0.1601708 0.5332974
-22.811533 -0.07175252 3.7953877 17.67743 -5.140642 -2.716613 2.161508 5.681767
-0.46988282 -6.4587655 -2.6171513 2.9502711 26.16875 -1.6175696 -0.41278568 27.117489
2.4335961 5.2436275 -15.044994 1.3416721 2.509935 2.9478905 -0.75910574 4.2412915
-5.632811 -4.8100295 0.38967898 -0.85769486 -0.82666236 -0.5973247 -2.4234116 2.1625497
0.8403834 -0.645309 -0.51141053 -0.49550295 1.3087837 1.3640172 1.3211037 -2.1988742
-1.6731637 0.16351934 -13.103669 2.9437392 -1.280672 14.412939 10.3983755 -2.011873
32.20457 -0.41936782 2.0954587 -2.2679079 -2.6496425 2.499215 6.6725173 1.4550322
-2.319477 -0.8740933 -0.4969117 0.058317207 -0.62643117 0.70202917 1.6032563 0.23012576
-0.14674334 -0.23638886 0.111746676 1.5817692 1.8202015 -1.6606832 -0.7744923 -0.048988584
1.52553 1.8662691 -3.0914476 4.8745437 9.717264 -1.1289701 37.35887 3.708449
3.4640615 0.29591194 -2.2447054 0.38179573 -0.15262336 0.63107246 -1.8413461 -4.4459276
4.838057 0.6562272 -36.5962 3.7525086 -3.9359653 -31.56209 -0.2547525 1.5674242
-2.405379 -0.86386204 -2.695779 6.1681147 4.447822 -5.178466 22.926933 -1.9535918
-1.3737069 -52.455147 -9.669176 -2.9841976 -31.670658 -6.922298 -1.6079084 5.2448196
-5.5978093 -3.3756757 -0.52977574 -1.1375687 -1.2178459 -24.907663 3.4379725 -0.027156625
4.1929364 1.7055153 2.911745 -31.975431 6.592109 -0.5744217 3.2419221 0.9370856
-1.6084684 -1.5820979 -7.261338 5.585118 11.27429 0.9758978 4.670768 74.82637
-11.746307 0.14481385 -40.691635 -2.5439942 -0.07928306 2.8216534 2.5128465 -0.53667045
4.737463 -1.5494405 -4.731943 25.797314 2.568517 1.2061162 -23.020384 4.509719
2.2161212 -25.01113 6.225628 -3.678378 2.2060554 8.386299 -1.7021602 0.46664086
1.4360471 -5.767105 -30.555838 2.3225765 -0.44688758 32.31429 1.4201225 1.6671224
-15.221466 -3.3958168 4.6025486 1.907338 -1.8778039 -0.43343252 4.954399 -8.720778
-5.303167 -10.24055 2.9821901 2.7147615 21.928957 7.2833366 0.46879506 20.99515
-6.476799 2.2308893 2.2589664 3.595399 -3.4170945 2.6655939 0.25754637 0.055384103
14.481913 -4.275054 3.4757106 13.718041 3.1729007 2.2796881 -7.4094877 2.3213694
-0.47548687 2.7866073 9.379501 2.5405316 -0.097153574 -1.5106475 1.3364034 6.1549478
00000000: ca97 a2c0 623f 50bf b90c cb3f 4715 77c2
00000010: 7c77 1dbf ac91 4140 836d 1ac1 bf7b dabf
00000020: b7e4 7c3f e108 d0c0 a247 a63e a036 9c40
00000030: 88f5 b8bf d3a3 90c0 21a3 93c0 fd67 e440
00000040: fa7d fbbb f888 debe 8c54 3341 c049 993f
00000050: b445 ccbe 8d9e 8440 1f9a 3740 ab83 053f
00000060: 5e6a de3f c9eb 1b40 45ab 9fbe cc88 413e
00000070: ccad d7bf 6595 88c0 a1c6 7b41 5fd2 34be
00000080: c759 2e3f 62c6 38c3 38ba adbf c600 90c0
00000090: 9752 4042 cc3a 0ac1 452e 7bbf 480d 1e40
000000a0: 3d42 98bf 3fe5 8940 c2db 1ec0 0aef d9bf
000000b0: 852f 7a40 ec4f a3c0 d003 24be 2e86 083f
000000c0: 057e b6c1 fcf2 92bd a2e7 7240 606b 8d41
000000d0: 2480 a4c0 fddc 2dc0 2656 0a40 09d1 b540
000000e0: 7b94 f0be 35ae cec0 687f 27c0 3ed1 3c40
000000f0: 9a59 d141 850c cfbf a558 d3be 9ef0 d841
00000100: 0ac0 1b40 cccb a740 4cb8 70c1 e9bb ab3f
00000110: c6a2 2040 3daa 3c40 c154 42bf a9b8 8740
00000120: fd3f b4c0 c3eb 99c0 0184 c73e e491 5bbf
00000130: 25a0 53bf 46ea 18bf 2d19 1bc0 3767 0a40
00000140: 5e23 573f f832 25bf cdeb 02bf 90b2 fdbe
00000150: 3986 a73f 1e98 ae3f ed19 a93f 5bba 0cc0
00000160: 3a2a d6bf 9d71 273e a1a8 51c1 3966 3c40
00000170: 0fed a3bf 669b 6641 bf5f 2641 87c2 00c0
00000180: 7bd1 0042 61b7 d6be ff1b 0640 6725 11c0
00000190: be93 29c0 23f3 1f40 4385 d540 7f3e ba3f
000001a0: 5072 14c0 94c4 5fbf 366b febe 06de 6e3d
000001b0: cb5d 20bf 2fb8 333f 8137 cd3f 16a6 6b3e
000001c0: e343 16be ec0f 72be 71db e43d 6a77 ca3f
000001d0: 5dfc e83f 4491 d4bf 2145 46bf 41a8 48bd
000001e0: 9144 c33f e8e1 ee3f 47da 45c0 43fc 9b40
000001f0: ea79 1b41 1882 90bf 7c6f 1542 3a57 6d40
00000200: 2fb3 5d40 c581 973e 41a9 0fc0 bb7a c33e
00000210: 4c49 1cbe f78d 213f 3bb1 ebbf 0a45 8ec0
00000220: 5dd1 9a40 81fe 273f 8262 12c2 1a29 7040
00000230: dbe6 7bc0 297f fcc1 eb6e 82be 5ba1 c83f
00000240: bbf1 19c0 1026 5dbf a587 2cc0 3261 c540
00000250: 8f54 8e40 feb5 a5c0 5c6a b741 4c0f fabf
00000260: a1d5 afbf 12d2 51c2 f2b4 1ac1 18fd 3ec0
00000270: 825d fdc1 7783 ddc0 f1cf cdbf 90d5 a740
00000280: 4121 b3c0 120b 58c0 629f 07bf da9b 91bf
00000290: 60e2 9bbf e542 c7c1 be07 5c40 9277 debc
000002a0: 892c 8640 534e da3f 085a 3a40 afcd ffc1
000002b0: 8ff2 d240 4d0d 13bf a77b 4f40 d8e4 6f3f
000002c0: 4be2 cdbf 2f82 cabf e25c e8c0 49b9 b240
000002d0: 7e63 3441 70d4 793f ee76 9540 1aa7 9542
000002e0: e0f0 3bc1 154a 143e 3cc4 22c2 cdd0 22c0
000002f0: 285f a2bd f895 3440 7ad2 2040 3c63 09bf
00000300: 4c99 9740 1154 c6bf 146c 97c0 e660 ce41
00000310: 9562 2440 0462 9a3f bf29 b8c1 9e4f 9040
00000320: eed4 0d40 cb16 c8c1 5838 c740 8c6a 6bc0
00000330: 0330 0d40 482e 0641 63e0 d9bf 8deb ee3e
00000340: 64d0 b73f 208c b8c0 5b72 f4c1 18a5 1440
00000350: 73ce e4be d541 0142 93c6 b53f 4464 d53f
00000360: 208b 73c1 1055 59c0 1448 9340 a723 f43f
00000370: e15b f0bf deea ddbe 708a 9e40 4f88 0bc1
00000380: 8bb3 a9c0 4bd9 23c1 34dc 3e40 a7be 2d40
00000390: 816e af41 1811 e940 e805 f03e 11f6 a741
000003a0: f041 cfc0 e4c6 0e40 e892 1040 041b 6640
000003b0: adb1 5ac0 1799 2a40 1edd 833e 71da 623d
000003c0: eab5 6741 3ecd 88c0 0b72 5e40 197d 5b41
000003d0: ce10 4b40 69e6 1140 861a edc0 5191 1440
000003e0: 0473 f3be c657 3240 7012 1641 1298 2240
000003f0: 74f8 c6bd e65c c1bf 440f ab3f 55f5 c440

read_level_prob_1.bias f4 [150]
0.005680181 -0.121998854 -0.05240324 -0.11424187 -0.26404968 0.21089095 -0.1499016 0.13100141
0.10751778 0.26099503 0.027884122 -0.13654518 -0.19854064 -0.030863296 0.02582078 0.20143634
-0.12626329 -0.19118018 -0.4248701 0.20273875 -0.5225682 -0.1619418 -0.297199 0.15861693
0.05509116 -0.00892406 0.30940923 0.08025794 0.6472001 0.31214496 0.1674049 -0.1504824
-0.30998084 0.14520156 -0.36246127 0.093399666 -0.14988427 -0.21709812 0.21085641 -0.1801062
-0.091576554 0.048084624 0.111489 0.14918251 -0.21058801 0.29174027 0.11981554 0.09620992
0.022948334 -0.24725123 0.025734194 -0.40526384 0.5042341 0.08438895 0.07580881 -0.15647486
0.21188179 0.40516618 0.12621532 0.06019144 0.053566102 0.2004391 -0.034681488 0.04060776
0.22626781 -0.027204605 -0.1498542 -0.15125825 -0.26533812 0.0074657067 -0.24136294 -0.1875045
0.342118 0.03633306 -0.97924966 0.021865182 0.041425332 -0.3853702 0.020280076 0.073782876
0.26994652 -0.06400683 -0.07569889 -0.06627241 -0.09485498 0.11072712 0.12691446 0.22830682
0.06687543 0.2977158 0.054580815 0.23566769 0.08252617 0.42367738 -0.30102432 0.1463564
-0.06282154 -0.019939443 0.26134157 0.023481188 -0.16159754 0.4996784 -0.0017903422 -0.089544654
-0.25164494 0.095359474 0.33325252 -0.17812058 -0.15248804 -0.0010267677 -0.19494067 -0.3994815
-0.1997325 -0.020516163 0.40224522 -0.20667559 0.08723598 -0.28326437 0.10951498 0.27172765
-0.15814699 0.18878463 0.39573976 -0.102338776 -0.288934 -0.20287359 0.12024682 -0.13393286
0.08660757 0.53642005 -0.18724118 0.039953623 -0.044619158 -0.20038736 0.098762356 -0.20341371
0.07034925 0.024639381 -0.31046095 -0.046952493 0.18478581 -0.026788628 0.10689034 0.036967266
-0.24293238 0.29659423 0.008987151 -0.2878169 -0.05797923 -0.048389044
00000000: d020 ba3b 89da f9bd c8a4 56bd a4f7 e9bd
00000010: 8531 87be ccf3 573e ce7f 19be 3c25 063e
00000020: 4832 dc3d 24a1 853e 3e6d e43c 80d2 0bbe
00000030: 3d4e 4bbe 06d5 fcbc 1a86 d33c 5445 4e3e
00000040: 2a4b 01be bdc4 43be 9388 d9be bf9a 4f3e
00000050: 08c7 05bf 12d4 25be 782a 98be 7a6c 223e
00000060: 45a7 613d 3836 12bc e36a 9e3e 465e a43d
00000070: e8ae 253f 77d1 9f3e 316c 2b3e 0f18 1abe
00000080: cfb5 9ebe b8af 143e 8694 b9be 5348 bf3d
00000090: 437b 19be f84e 5ebe beea 573e c26d 38be
000000a0: 7d8c bbbd 62f4 443d 5854 e43d 4dc3 183e
000000b0: 62a4 57be fb5e 953e da61 f53d b509 c53d
000000c0: 25fe bb3c 6d2f 7dbe 84d0 d23c be7e cfbe
000000d0: 7c15 013f 1dd4 ac3d a641 9b3d f23a 20be
000000e0: 8af7 583e f171 cf3e 973e 013e 4d8b 763d
000000f0: 2168 5b3d e83f 4d3e 2d0e 0ebd 5354 263d
00000100: c0b2 673e 31dc debc 6173 19be 71e3 1abe
00000110: 66da 87be e3a2 f43b d927 77be 2e01 40be
00000120: 172a af3e fad1 143d 1bb0 7abf 9c1e b33c
00000130: 9cad 293d 3e4f c5be 6722 a63c 7a1b 973d
00000140: 6e36 8a3e 0316 83bd 0508 9bbd d4b9 87bd
00000150: 5443 c2bd e6c4 e23d ddf5 013e 43c9 693e
00000160: fcf5 883d 356e 983e 2290 5f3d df52 713e
00000170: 7b03 a93d 3eec d83e dc1f 9abe 74de 153e
00000180: 94a8 80bd 0b58 a3bc 90ce 853e 9f5b c03c
00000190: d379 25be d9d5 ff3e eaa9 eaba 3063 b7bd
000001a0: 9bd7 80be d44b c33d 13a0 aa3e 3e65 36be
000001b0: d325 1cbe 9b94 86ba 879e 47be d788 ccbe
000001c0: ad86 4cbe 8311 a8bc 16f3 cd3e c4a2 53be
000001d0: c7a8 b23d 0708 91be 6449 e03d e31f 8b3e
000001e0: 49f1 21be c250 413e 679e ca3e fe96 d1bd
000001f0: 28ef 93be 18be 4fbe f743 f63d b225 09be
00000200: 4f5f b13d d352 093f 27bc 3fbe 69a6 233d
00000210: 94c2 36bd 5832 4dbe eb43 ca3d af4b 50be
00000220: 4513 903d 87d8 c93c bdf4 9ebe 4251 40bd
00000230: 7e38 3d3e d373 dbbc 53e9 da3d fd6a 173d
00000240: 44c3 78be 33db 973e d83e 133c bd5c 93be
00000250: a17b 6dbd 9733 46bd

norm_1.weight f4 [150]
1.6897274 0.24513273 2.4344149 2.2427452 3.1363056 0.09713567 2.6531224 -0.07456524
1.1939468 0.8782732 2.004316 2.8191137 2.6392462 2.507442 3.1862016 2.6816437
2.917738 2.4214523 2.1864917 2.5347068 2.5275445 3.0791621 2.847863 0.0008596123
2.772738 3.1514485 2.9923031 2.2881715 3.0895095 3.267525 0.015134848 2.8164005
2.5199645 2.0432665 3.2305887 2.7735343 2.8560624 0.079726145 -0.1406832 2.2955024
2.266446 2.561414 2.5431905 1.9251165 1.5459182 1.4277272 2.8849685 1.9955366
2.90959 0.084711455 0.14394982 2.9813647 1.6168503 2.3285205 3.3847744 2.3389902
3.4369576 2.929892 3.204683 1.3826092 2.3025265 2.2210581 2.7642527 1.5837395
2.0087173 2.9100177 2.4163623 2.4347064 -0.070720784 3.329258 0.041781295 0.22063701
2.7824068 2.7511456 3.277801 2.5075135 2.7532275 2.5536313 2.9926858 3.3011918
2.5663922 2.4174314 2.6608207 2.713278 2.5734286 2.5666268 3.156833 3.046857
2.8996525 3.5401661 1.9079463 0.35902527 0.2589722 3.0703468 2.7231827 0.043347683
2.905127 0.047333997 2.6455286 0.09657524 0.050848503 2.7174387 3.402377 2.4692023
3.0915496 0.105740875 3.5891144 1.6742162 2.0179212 -0.032548826 2.2459831 2.5132008
3.05789 2.2312462 2.2255368 3.3911877 2.675254 2.5470464 0.06285236 2.6116436
3.2042692 2.7641933 2.4191067 0.2556842 0.010103409 2.8123286 2.9583008 2.8877778
2.3615885 2.6397166 2.8097427 2.924695 2.7917008 0.036779176 2.334674 0.2615574
0.05258107 2.6148605 3.15982 2.6748526 0.18918787 0.63145787 2.7919025 2.1617157
0.12834276 2.9232287 2.8471541 2.2897546 2.581598 0.5018944
00000000: fd48 d83f 1304 7b3e 74cd 1b40 2389 0f40
00000010: 3bb9 4840 11ef c63d c2cc 2940 a9b5 98bd
00000020: 40d3 983f 83d6 603f b746 0040 5c6c 3440
00000030: 69e9 2840 ee79 2040 baea 4b40 0da0 2b40
00000040: 38bc 3a40 13f9 1a40 7bef 0b40 a338 2240
00000050: 4ac3 2140 fe10 4540 6343 3640 9b57 613a
00000060: 8a74 3140 55b1 4940 e581 3f40 6771 1240
00000070: 86ba 4540 211f 5140 27f8 773c e83f 3440
00000080: 1947 2140 e1c4 0240 f7c1 4e40 9681 3140
00000090: bac9 3640 7647 a33d 420f 10be 83e9 1240
000000a0: 740d 1140 35ee 2340 a2c3 2240 386a f63f
000000b0: a6e0 c53f c4bf b63f 53a3 3840 be6d ff3f
000000c0: b936 3a40 337d ad3d 9567 133e aece 3e40
000000d0: f3f4 ce3f 7b06 1540 25a0 5840 04b2 1540
000000e0: 1df7 5b40 5a83 3b40 8719 4d40 57f9 b03f
000000f0: 985c 1340 d125 0e40 84e9 3040 fab7 ca3f
00000100: d38e 0040 bb3d 3a40 aea5 1a40 3bd2 1b40
00000110: 0fd6 90bd 9012 5540 dd22 2b3d abee 613e
00000120: f412 3240 c512 3040 7ec7 5140 1a7b 2040
00000130: e134 3040 b26e 2340 2a88 3f40 ba46 5340
00000140: c53f 2440 32b7 1a40 e34a 2a40 59a6 2d40
00000150: 0eb3 2440 9d43 2440 8d09 4a40 b5ff 4240
00000160: e893 3940 1592 6240 9637 f43f 29d2 b73e
00000170: 0198 843e 9080 4440 a048 2e40 578d 313d
00000180: 9aed 3940 4be1 413d 5750 2940 3dc9 c53d
00000190: 8546 503d 84ea 2d40 8bc0 5940 6907 1e40
000001a0: f3db 4540 ac8e d83d 0db4 6540 b74c d63f
000001b0: 9f25 0140 eb51 05bd 30be 0f40 48d8 2040
000001c0: 78b4 4340 bdcc 0e40 326f 0e40 3809 5940
000001d0: 5d37 2b40 cf02 2340 bdb8 803d 2b25 2740
000001e0: bf12 4d40 8be8 3040 a5d2 1a40 0ae9 823e
000001f0: c588 253c 31fd 3340 cd54 3d40 5ad1 3840
00000200: 4424 1740 1ef1 2840 d3d2 3340 342e 3b40
00000210: 3aab 3240 c3a5 163d 4c6b 1540 daea 853e
00000220: 405f 573d e059 2740 7e3a 4a40 c930 2b40
00000230: 77ba 413e 39a7 213f 88ae 3240 8d59 0a40
00000240: 496c 033e 2e16 3b40 c637 3640 578b 1240
00000250: e738 2540 277c 003f

norm_1.bias f4 [150]
-0.858771 -1.8143126 -3.0183208 -2.2909834 -3.2899702 -1.3797941 -3.3655763 -0.7530778
-0.31427535 0.2543863 -2.060539 -3.6824262 -4.059792 -2.5516293 -3.8416674 -3.7045834
-3.8880417 -4.505748 -2.5915866 -4.731211 -1.7718463 -3.7587936 -3.894022 -0.7287971
-2.749471 -2.2684674 -3.8032625 -1.8136001 0.4006509 -4.364878 -1.3507192 -2.7555332
-3.0076692 -1.4364958 -1.6104724 -2.2466307 -3.5962982 -1.1381843 -1.5487056 -1.9547507
-0.6744883 -4.214926 -3.9307275 -0.22334732 -0.80389464 -0.7856566 -2.5154653 -2.8109562
-3.9381843 -0.9563476 -0.76043344 -3.9481018 0.64781886 -1.6960284 -3.4448252 -2.3883004
-3.6776066 -4.162585 -2.4882288 -0.08972283 -1.6225077 -1.9579045 -4.0501823 -0.5600831
-0.95351106 -1.7196122 -2.4364378 -3.1002262 -0.75016755 -3.033815 -0.77874374 -1.0182871
-5.0670133 -4.3142304 -3.970497 -4.803036 -3.2050264 -4.857681 -1.7983116 -4.237962
-2.03068 -2.0844178 -6.182441 -2.3343227 -1.540571 -4.610243 -5.0345335 -4.360854
-3.4881964 -2.6879654 -2.4605136 -2.3659217 -1.5827157 -4.8046017 -2.274908 -0.41613588
-3.5320127 -1.0704341 -0.2265937 -1.194741 -2.1706295 -2.8456836 -3.782053 -2.347973
-2.7573245 -0.560512 -3.7253897 0.022522388 -2.2691126 -0.89889663 -4.865384 -3.4051032
-4.1041985 -2.1531713 0.60534215 -1.1462249 -4.219651 -3.2251225 -1.2742103 -3.611373
-3.4728858 -3.9243305 -2.1909184 -1.8827499 -0.29679292 -4.05084 -2.9877982 -2.0023816
-3.7941623 -0.82636416 -2.5126467 -3.1316998 -4.194003 -0.7211603 -4.559628 -1.3187284
-1.0828995 -2.1490881 -0.41205648 -2.5443702 -1.3245935 -3.1250675 -3.1367512 -1.855063
-1.057759 -3.1856449 -2.5133028 -2.4201806 -1.4353031 -2.2189827
00000000: 6bd8 5bbf 653b e8bf 2b2c 41c0 799f 12c0
00000010: df8e 52c0 189d b0bf 9a65 57c0 b5c9 40bf
00000020: b3e8 a0be ec3e 823e dfdf 03c0 dfac 6bc0
00000030: d1e9 81c0 e54d 23c0 e1dd 75c0 e517 6dc0
00000040: add5 78c0 162f 90c0 8edc 25c0 1566 97c0
00000050: dccb e2bf 1390 70c0 a837 79c0 7292 3abf
00000060: 55f7 2fc0 922e 11c0 a768 73c0 0c24 e8bf
00000070: 1d22 cd3e 15ad 8bc0 5ee4 acbf a85a 30c0
00000080: a77d 40c0 18df b7bf f623 cebf ccc8 0fc0
00000090: c029 66c0 06b0 91bf fc3b c6bf 4535 fabf
000000a0: 44ab 2cbf ace0 86c0 0a91 7bc0 29b5 64be
000000b0: 0acc 4dbf ca20 49bf 62fd 20c0 b5e6 33c0
000000c0: 360b 7cc0 32d3 74bf c4ab 42bf b3ad 7cc0
000000d0: 75d7 253f 7517 d9bf 0478 5cc0 ead9 18c0
000000e0: e85d 6bc0 e533 85c0 243f 1fc0 9ac0 b7bd
000000f0: 55ae cfbf 9d9c fabf 189b 81c0 9b61 0fbf
00000100: 4d19 74bf 411c dcbf 99ee 1bc0 1b6a 46c0
00000110: fb0a 40bf 062a 42c0 c05b 47bf 3b57 82bf
00000120: f924 a2c0 2d0e 8ac0 9f1c 7ec0 79b2 99c0
00000130: 271f 4dc0 1f72 9bc0 132f e6bf 629d 87c0
00000140: a9f6 01c0 1a67 05c0 8fd6 c5c0 8b65 15c0
00000150: 6e31 c5bf 1c87 93c0 e61a a1c0 1e8c 8bc0
00000160: 9c3e 5fc0 a007 2cc0 0e79 1dc0 436b 17c0
00000170: 6e96 cabf 4cbf 99c0 1898 11c0 c30f d5be
00000180: 7f0c 62c0 fc03 89bf 2e08 68be 46ed 98bf
00000190: 98eb 0ac0 ae1f 36c0 280d 72c0 3145 16c0
000001a0: 0178 30c0 b77d 0fbf c96c 6ec0 df80 b83c
000001b0: 2439 11c0 171e 66bf 3ab1 9bc0 36ed 59c0
000001c0: 9855 83c0 8fcd 09c0 b4f7 1a3f 7fb7 92bf
000001d0: 6207 87c0 6868 4ec0 5319 a3bf bc20 67c0
000001e0: c343 5ec0 3b28 7bc0 0238 0cc0 f3fd f0bf
000001f0: 3ef5 97be 7ba0 81c0 1638 3fc0 0527 00c0
00000200: 8ed3 72c0 9a8c 53bf 34cf 20c0 c56d 48c0
00000210: 4635 86c0 f69d 38bf 79e8 91c0 18cc a8bf
00000220: 739c 8abf a98a 09c0 11f9 d2be f6d6 22c0
00000230: 488c a9bf 1b01 48c0 88c0 48c0 b472 edbf
00000240: a664 87bf 9be1 4bc0 f4d9 20c0 3de4 1ac0
00000250: 03b8 b7bf d003 0ec0

norm_1.running_mean f4 [150]
601.58057 -36.12348 -542.77423 239.95317 768.3269 -8.964066 -126.931206 168.94026
-112.17832 -193.64313 -712.04974 318.76312 470.21307 121.373955 532.3569 582.92456
610.7391 546.3698 -502.00204 -124.91791 439.40823 -140.09235 561.91223 24.806183
114.90885 382.81537 597.28546 -447.54913 554.25055 -158.556 60.82581 437.3749
554.5992 327.10513 585.23395 327.7837 30.300406 -61.347828 3.2736323 103.46871
780.40137 318.5321 164.4361 195.87973 -141.39227 -1184.8679 97.965004 531.3924
-236.33174 15.1953535 141.65298 781.33813 258.45508 514.60236 -179.18082 481.74844
157.19185 524.05414 592.15826 289.27686 163.97426 169.55238 421.72324 -668.5275
210.73024 622.7057 -173.31927 -47.761677 91.63539 650.6421 187.71336 139.42094
633.8759 49.124065 597.14355 340.7741 692.8411 677.6426 260.6043 -49.378002
712.01965 -71.15318 -62.508324 519.5162 -147.94952 378.52603 196.22777 447.44464
77.89257 799.89374 271.46332 402.60248 -85.1101 -282.63098 541.9194 31.57411
-157.27899 227.80087 165.10085 64.73525 111.09549 228.34094 233.09459 223.96204
177.18695 -8.377267 703.1995 -177.14268 209.67471 -83.13812 -562.998 698.40424
362.74197 -513.82874 568.16626 477.4645 540.53284 308.05154 202.51381 37.605404
-666.2427 406.51514 794.1793 283.50305 45.352314 99.19765 108.91311 545.0476
443.29968 826.15094 376.3055 -113.68277 -577.1871 -15.046353 357.39313 223.44205
190.50703 853.42194 354.99084 84.43555 50.76084 206.04755 343.4587 -214.75241
59.173054 107.023254 29.260035 348.5957 423.06207 164.34636
00000000: 2865 1644 727e 10c2 8db1 07c4 03f4 6f43
00000010: ec14 4044 d06c 0fc1 c7dc fdc2 b5f0 2843
00000020: 4d5b e0c2 a4a4 41c3 2f03 32c4 ae61 9f43
00000030: 461b eb43 77bf f242 d716 0544 2cbb 1144
00000040: 4daf 1844 ab97 0844 4300 fbc3 f8d5 f9c2
00000050: 41b4 db43 a417 0cc3 627a 0c44 1073 c641
00000060: 55d1 e542 5e68 bf43 4552 1544 4ac6 dfc3
00000070: 0990 0a44 568e 1ec3 a14d 7342 fdaf da43
00000080: 59a6 0a44 758d a343 f94e 1244 50e4 a343
00000090: 3b67 f241 2d64 75c2 3183 5140 fbef ce42
000000a0: b019 4344 1c44 9f43 a46f 2443 36e1 4343
000000b0: 6c64 0dc3 c61b 94c4 15ee c342 1dd9 0444
000000c0: ed54 6cc3 2b20 7341 2aa7 0d43 a455 4344
000000d0: 403a 8143 8da6 0044 4a2e 33c3 cddf f043
000000e0: 1d31 1d43 7703 0344 210a 1444 70a3 9043
000000f0: 69f9 2343 698d 2943 93dc d243 c321 27c4
00000100: f1ba 5243 2aad 1b44 bc51 2dc3 f50b 3fc2
00000110: 5245 b742 18a9 2244 9fb6 3b43 c36b 0b43
00000120: 0f78 1e44 0b7f 4442 3049 1544 1663 aa43
00000130: d535 2d44 2069 2944 5a4d 8243 1383 45c2
00000140: 4201 3244 6e4e 8ec2 8608 7ac2 09e1 0144
00000150: 14f3 13c3 5543 bd43 4f3a 4443 eab8 df43
00000160: ffc8 9b42 33f9 4744 4ebb 8743 1e4d c943
00000170: 5f38 aac2 c450 8dc3 d77a 0744 c797 fc41
00000180: 6c47 1dc3 06cd 6343 d119 2543 7378 8142
00000190: e430 de42 4857 6443 3718 6943 48f6 5f43
000001a0: dc2f 3143 4909 06c1 c5cc 2f44 8724 31c3
000001b0: baac 5143 b846 a6c2 dfbf 0cc4 df99 2e44
000001c0: f95e b543 0a75 00c4 a40a 0e44 75bb ee43
000001d0: 1a22 0744 9906 9a43 8983 4a43 ef6b 1642
000001e0: 888f 26c4 f041 cb43 7a8b 4644 64c0 8d43
000001f0: c568 3542 3265 c642 83d3 d942 0c43 0844
00000200: 5ca6 dd43 a989 4e44 1b27 bc43 945d e3c2
00000210: f94b 10c4 ddbd 70c1 52b2 b243 2a71 5f43
00000220: cd81 3e43 015b 5544 d47e b143 00df a842
00000230: 1a0b 4b42 2c0c 4e43 b7ba ab43 9ec0 56c3
00000240: 35b1 6c42 e80b d642 8d14 ea41 404c ae43
00000250: f287 d343 ab58 2443

norm_1.running_var f4 [150]
2417.0354 914.0452 5152.9146 637.0664 1947.3585 151.65727 1306.3329 114.45775
1560.3892 1288.9567 3564.159 1743.5278 2707.2117 1315.0928 1018.87274 819.6912
889.65497 1511.1202 1480.6835 3094.6045 830.11237 2727.1655 1722.1625 21.542
1612.4823 1607.1118 785.0013 3865.3096 967.67914 1592.4974 160.81548 1528.5872
1620.4441 2607.7112 1481.8038 1661.3982 1423.079 107.94853 424.67276 1338.1438
1078.4454 1236.0464 1387.6271 1124.3353 2365.0205 3672.9285 1715.7374 3802.6462
1951.2384 185.6246 325.2502 2022.0555 837.9129 764.7689 1618.8367 843.97833
2219.1807 3546.1382 2289.7688 2918.933 1885.7717 1479.4299 1363.2672 1196.7855
1126.5818 1611.4491 2078.5332 987.12695 33.078964 978.8427 93.94057 564.836
1201.1835 1202.5724 846.0817 791.85956 9170.441 1287.8612 1670.7278 1527.3181
1767.449 735.9842 791.861 1562.1694 920.9914 1185.1312 1181.8269 6814.149
1870.0956 1304.8232 1466.1333 710.81995 304.18164 630.48615 1236.2285 63.29602
1350.9297 233.78104 2470.504 168.83202 535.961 1596.7653 791.1736 6273.678
5186.173 68.43356 1786.2456 6098.6997 1032.6053 100.3563 1589.113 864.3138
1328.8326 2562.4985 770.7879 1225.7117 1506.1908 2463.0906 122.496216 2289.9194
3163.764 1179.0908 1481.1674 515.4148 192.72763 1709.7393 1165.3545 1745.765
1594.802 1280.0933 1452.785 2919.825 3548.173 141.13503 1392.2964 131.1664
378.31122 2657.8833 2425.7021 1735.1986 303.4218 1126.5822 968.073 1201.2329
172.90134 881.4945 1546.9402 1326.9529 1428.5586 449.6809
00000000: 9110 1745 e582 6444 5107 a145 4044 1f44
00000010: 796b f344 43a8 1743 a74a a344 5eea e442
00000020: 740c c344 9d1e a144 8bc2 5e45 e4f0 d944
00000030: 6333 2945 f862 a444 dbb7 7e44 3dec 4c44
00000040: eb69 5e44 d9e3 bc44 df15 b944 ac69 4145
00000050: 3187 4f44 a672 2a45 3345 d744 0456 ac41
00000060: 6f8f c944 94e3 c844 1540 4444 f494 7145
00000070: 77eb 7144 eb0f c744 c3d0 2043 ca12 bf44
00000080: 368e ca44 61fb 2245 b939 b944 beac cf44
00000090: 87e2 b144 a6e5 d742 1d56 d443 9a44 a744
000000a0: 41ce 8644 7c81 9a44 1174 ad44 bb8a 8c44
000000b0: 54d0 1345 db8e 6545 9977 d644 57aa 6d45
000000c0: a1e7 f344 e69f 3943 07a0 a243 c7c1 fc44
000000d0: 6d7a 5144 3631 3f44 c65a ca44 9dfe 5244
000000e0: e4b2 0a45 36a2 5d45 4d1c 0f45 ee6e 3645
000000f0: b2b8 eb44 c2ed b844 8d68 aa44 2399 9544
00000100: 9ed2 8c44 5f6e c944 88e8 0145 20c8 7644
00000110: dc50 0442 efb5 7444 92e1 bb42 8135 0d44
00000120: df25 9644 5152 9644 3b85 5344 03f7 4544
00000130: c449 0f46 8ffb a044 4ad7 d044 2eea be44
00000140: 5eee dc44 fdfe 3744 1bf7 4544 6c45 c344
00000150: 733f 6644 3324 9444 76ba 9344 31f1 d445
00000160: 0fc3 e944 581a a344 4444 b744 7ab4 3144
00000170: 4017 9843 1d9f 1d44 5087 9a44 202f 7d42
00000180: c0dd a844 f2c7 6943 1068 1a45 ffd4 2843
00000190: 81fd 0544 7d98 c744 1ccb 4544 6d0d c445
000001a0: 6211 a245 fcdd 8842 dc47 df44 9995 be45
000001b0: 5f13 8144 6db6 c842 9ea3 c644 1514 5844
000001c0: a51a a644 fa27 2045 6db2 4044 c636 9944
000001d0: 1b46 bc44 73f1 1945 10fe f442 b61e 0f45
000001e0: 39bc 4545 e862 9344 5b25 b944 8cda 0044
000001f0: 46ba 4043 a8b7 d544 58ab 9144 7b38 da44
00000200: aa59 c744 fc02 a044 1f99 b544 337d 3645
00000210: c5c2 5d45 9122 0d43 7c09 ae44 992a 0343
00000220: d627 bd43 221e 2645 3c9b 1745 5be6 d844
00000230: feb5 9743 a1d2 8c44 ac04 7244 7427 9644
00000240: bee6 2c43 a65f 5c44 165e c144 7ede a544
00000250: e091 b244 28d7 e043

read_level_prob_2.weight f4 [32, 150]
-0.07578319 -0.04064521 -0.12377891 -0.11873757 0.007695377 -0.06233406 -0.025072793 -0.0643322
-0.01273575 -0.07946679 -0.059725344 -0.06587411 0.0144928945 -0.12993786 0.010991668 -0.038421545
-0.031592347 -0.017595593 -0.018046735 -0.05977941 -0.03243707 -0.0668515 -0.098750725 -0.025363516
-0.021856006 -0.035506606 -0.051630028 -0.013510811 -0.09109373 0.016315047 -0.0043829884 -0.1161632
-0.12410072 -0.08182451 -0.023808606 -0.055745576 -0.04340404 -0.100547686 0.01689999 -0.027869876
-0.062014755 -0.092878036 0.019783113 -0.05405571 -0.08135948 -0.0628011 -0.062744096 -0.040502664
-0.1342417 -0.009632469 -0.017028099 0.025558064 -0.0033666298 -0.1121592 -0.063512884 0.017459454
-0.03069487 -0.03900829 -0.02118257 -0.043060567 -0.08347189 0.0047010174 -0.107560374 0.022787966
-0.025383217 0.00749494 -0.014853908 0.00030866434 -0.06166223 -0.0954202 -0.0375431 -0.12832047
-0.119837865 -0.14064655 0.014498165 -0.13658516 0.019931227 -0.12270348 -0.07779476 -0.026539257
-0.021507056 -0.038049556 -0.037851624 -0.10268677 -0.011676837 0.009900627 -0.08021654 -0.06820184
-0.07937474 -0.08535238 0.031853084 -0.0676841 0.016572703 -0.035681326 -0.04016248 -0.13171117
-0.14117116 -0.08181163 -0.09058103 -0.07014943 0.014609983 -0.08025983 -0.08169294 -0.13454773
-0.09274468 -0.020745223 -0.11490444 -0.053857345 -0.01594801 -0.11806928 -0.019444939 -0.13830751
-0.0063463706 -0.119614124 0.0035695466 -0.07238338 0.023646442 0.015351765 -0.113157086 -0.03177013
-0.06363885 -0.08542658 -0.09499438 0.015936418 -0.010619854 0.007746901 -0.019825859 -0.081065476
-0.08943992 -0.09531837 -0.13319227 -0.055522844 0.010293568 -0.089164004 -0.061686125 -0.12678322
-0.07824625 0.01417179 -0.0013724853 -0.11485348 -0.019851223 -0.11682614 -0.030956581 -0.13692603
-0.051463973 -0.038333096 -0.02888622 -0.060542617 -0.11435805 -0.07955416 -0.975789 -0.39676285
-3.0911717 -4.734986 -16.643404 0.67144513 3.2453609 0.2034356 -1.1626389 -1.6723862
0.25192383 5.7697806 4.512494 -1.7888974 -8.322584 -2.9889634 -4.2316384 0.50232685
-2.4665883 3.4398134 4.4912486 -2.0138676 1.142711 -0.075649925 -1.1484464 0.48038945
-8.874373 -0.024098257 -4.4517446 3.7262678 0.24338311 4.2960386 3.2520733 1.6883836
0.9766714 2.0180962 -0.5901428 -0.14428718 0.40976414 2.500785 -0.58039945 5.5261993
7.4992504 -0.4904489 0.8836343 1.0740926 -4.8201118 4.9669895 3.4103405 -0.10138447
0.45193082 -2.0386546 -10.046856 -7.4812474 -9.610009 -1.2451376 4.1415687 0.667425
-2.0047941 1.7271277 -0.33361632 1.2511994 -2.8551478 0.043398794 2.0654314 0.98460203
2.3822947 -4.278923 -0.12748685 -10.300867 0.15918188 0.51639813 -1.3145009 -3.7633262
-1.5378535 1.3256375 -3.5057957 -1.001025 -0.62529564 -12.916322 -6.581321 -8.556429
4.1195874 -2.5489633 -2.4284868 3.8418124 -4.410274 0.043973193 1.1382213 -0.98808426
-8.731009 0.6354244 0.14164364 2.342609 -5.6876264 0.32143846 -8.917229 0.7397774
0.57728714 0.044817686 -0.5832274 0.39488605 0.23437291 -4.30012 0.040021364 -0.045524243
00000000: 3834 9bbd 977b 26bd cc7f fdbd af2c f3bd
00000010: 8029 fc3b 0052 7fbd 7565 cdbc 9ac0 83bd
00000020: 9ba9 50bc 7cbf a2bd 90a2 74bd 01e9 86bd
00000030: 9b73 6d3c 6e0e 05be 6616 343c e95f 1dbd
00000040: fa66 01bd a224 90bc bfd6 93bc 41db 74bd
00000050: bcdc 04bd 70e9 88bd d23d cabd 26c7 cfbc
00000060: 5e0b b3bc 606f 11bd 027a 53bd 735c 5dbc
00000070: 598f babd 22a7 853c 2c9f 8fbb f9e6 edbd
00000080: 8528 febd 9c93 a7bd 440a c3bc 7955 64bd
00000090: 6fc8 31bd f2eb cdbd d971 8a3c 5e4f e4bc
000000a0: 2f03 7ebd d736 bebd 3210 a23c 8569 5dbd
000000b0: cd9f a6bd dd9d 80bd fa7f 80bd 1fe6 25bd
000000c0: a876 09be 81d1 1dbc 837e 8bbc 255f d13c
000000d0: ada2 5cbb b9b3 e5bd 0b13 82bd 2107 8f3c
000000e0: cf73 fbbc 28c7 1fbd 1287 adbc 4760 30bd
000000f0: 4ff3 aabd fe0a 9a3b 9d48 dcbd d4ad ba3c
00000100: 77f0 cfbc 1d98 f53b ce5d 73bc 3ad4 a139
00000110: 8991 7cbd aa6b c3bd cbc6 19bd 7166 03be
00000120: 8e6d f5bd a605 10be b689 6d3c fbdc 0bbe
00000130: d046 a33c f64b fbbd dc52 9fbd db68 d9bc
00000140: 912f b0bc dad9 1bbd 4e0a 1bbd 714d d2bd
00000150: 3450 3fbc 3d36 223c 9248 a4bd 68ad 8bbd
00000160: 398f a2bd 3bcd aebd 6178 023d f69d 8abd
00000170: 7ac3 873c 9526 12bd 6a81 24bd 4bdf 06be
00000180: 2c8f 10be db8c a7bd 8c82 b9bd 81aa 8fbd
00000190: b65e 6f3c 445f a4bd a14e a7bd e1c6 09be
000001a0: ecf0 bdbd e3f1 a9bc 0553 ebbd 8599 5cbd
000001b0: 67a5 82bc 4fce f1bd fe4a 9fbc 7ca0 0dbe
000001c0: 37f5 cfbb 40f8 f4bd 0eef 693b bd3d 94bd
000001d0: 2fb6 c13c f885 7b3c e7be e7bd 6521 02bd
000001e0: 1655 82bd 21f4 aebd 6a8c c2bd 178d 823c
000001f0: e5fe 2dbc b7d9 fd3b d769 a2bc a805 a6bd
00000200: 472c b7bd 4736 c3bd 8e63 08be ec6b 63bd
00000210: 5aa6 283c 9e9b b6bd 97aa 7cbd 76d3 01be
00000220: 923f a0bd cc30 683c f7e4 b3ba 4d38 ebbd
00000230: 089f a2bc 8b42 efbd a898 fdbc 5636 0cbe
00000240: e3cb 52bd 2a03 1dbd cba2 ecbc 89fb 77bd
00000250: 8e34 eabd 4bed a2bd 4fcd 79bf 8024 cbbe
00000260: c2d5 45c0 0185 97c0 b125 85c1 d4e3 2b3f
00000270: feb3 4f40 6c51 503e 5ad1 94bf c010 d6bf
00000280: 29fc 803e 0ba2 b840 5a66 9040 97fa e4bf
00000290: 4e29 05c1 2d4b 3fc0 9569 87c0 7e98 003f
000002a0: 95dc 1dc0 e725 5c40 4fb8 8f40 35e3 00c0
000002b0: 5b44 923f 59ee 9abd 4b00 93bf 9bf5 f53e
000002c0: 6ffd 0dc1 b569 c5bc b174 8ec0 2c7b 6e40
000002d0: 6c39 793e 2679 8940 f821 5040 f41c d83f
000002e0: 2307 7a3f 7d28 0140 9913 17bf 05c0 13be
000002f0: 9bcc d13e dd0c 2040 0f95 14bf a0d6 b040
00000300: dcf9 ef40 1e1c fbbe dc35 623f de7b 893f
00000310: 5b3e 9ac0 94f1 9e40 0543 5a40 a9a2 cfbd
00000320: 7a63 e73e 5179 02c0 ecbf 20c1 6166 efc0
00000330: 99c2 19c1 ab60 9fbf bb87 8440 5ddc 2a3f
00000340: 8c4e 00c0 8512 dd3f c2cf aabe 4d27 a03f
00000350: beba 36c0 efc2 313d 0730 0440 e10e 7c3f
00000360: 8477 1840 f0ec 88c0 ea8b 02be 5ad0 24c1
00000370: 9300 233e ab32 043f 9141 a8bf 56da 70c0
00000380: 62d8 c4bf 7dae a93f f55e 60c0 9621 80bf
00000390: 6013 20bf 41a9 4ec1 2e9a d2c0 22e7 08c1
000003a0: a9d3 8340 3722 23c0 546c 1bc0 41e0 7540
000003b0: f720 8dc0 3c1d 343d 3cb1 913f 17f3 7cbf
000003c0: 36b2 0bc1 2cab 223f 080b 113e 4eed 1540
000003d0: 0901 b6c0 9593 a43e f8ac 0ec1 0d62 3d3f
000003e0: 17c9 133f c092 373d 644e 15bf 812e ca3e
000003f0: 74ff 6f3e 959a 89c0 71ed 233d a177 3abd

read_level_prob_2.bias f4 [32]
-0.10117682 -0.24967572 -0.1381044 -1.716174 -0.034816056 -3.9445977 -1.1571857 -0.6038975
0.25563493 -0.636113 -0.17467698 -0.6520197 -0.07089788 -0.4137958 -2.4353826 -0.55624
-0.048786193 -0.9114925 -0.7612856 -0.35561422 -0.12366005 -0.513893 -0.17809044 -0.11452894
2.2038543 -0.45758885 -1.1033036 -0.07418485 -0.60906047 -0.109760426 -0.07791734 -0.038293898
00000000: cb35 cfbd feaa 7fbe 3d6b 0dbe 97ab dbbf
00000010: 489b 0ebd 4a74 7cc0 a91e 94bf 0799 1abf
00000020: 95e2 823e 4dd8 22bf 86de 32be c3ea 26bf
00000030: e832 91bd 0bdd d3be 4fdd 1bc0 bf65 0ebf
00000040: 08d4 47bd 9357 69bf 9de3 42bf 1113 b6be
00000050: 7b41 fdbd 7e8e 03bf 575d 36be 268e eabd
00000060: f30b 0d40 1649 eabe 0d39 8dbf 3aee 97bd
00000070: 63eb 1bbf 13ca e0bd 2093 9fbd 10da 1cbd

read_level_prob_3.weight f4 [1, 32]
-0.058036238 0.30140868 0.027887281 -0.025416901 0.087605536 -0.54142493 0.11037092 -0.0614604
-0.29128483 -0.072000965 0.0009657185 0.17231444 -0.044988934 0.046836022 0.42274824 -0.17056437
-0.04184645 -0.00047698768 -0.013708664 -0.3753281 -0.050215896 0.11393622 -0.020852862 0.020051457
0.2763273 -0.21711843 -0.31655613 -0.01862632 -0.12836716 0.07182528 0.09401146 0.07300355
00000000: 68b7 6dbd 3d52 9a3e de73 e43c 1b37 d0bc
00000010: 886a b33d d39a 0abf 260a e23d e6bd 7bbd
00000020: 4923 95be 3e75 93bd 4528 7d3a 3273 303e
00000030: 5146 38bd 21d7 3f3d 7572 d83e 6da8 2ebe
00000040: 2f67 2bbd 3414 fab9 4e9a 60bc 012b c0be
00000050: 2faf 4dbd 6557 e93d 9fd3 aabc f442 a43c
00000060: c67a 8d3e 4b54 5ebe a513 a2be 3996 98bc
00000070: ae72 03be 2219 933d 1589 c03d e382 953d
