notebooks/m6a.pth (torch, 35777 bytes, 10 tensors)

embed.weight f4 [66, 2]
000000 4a 2e d3 bf 12 18 a9 bf a9 e0 0e bf a9 80 fd bf
       -1.6498501 -1.3210471 -0.55811554 -1.9804889
000010 ac 2a eb be 0d c6 a0 bf cc 05 69 3f 4b 30 0a bf
       -0.45930994 -1.256044 0.9102447 -0.5397994
000020 4d d6 2c 40 29 a7 7f 3f 87 3a 8d bf 4e 00 23 40
       2.70058 0.9986444 -1.1033486 2.5468936
000030 38 b2 d8 be 98 bd 81 bf bd 6e 82 bf 1f cd bc 3e
       -0.4232347 -1.0135984 -1.0190045 0.36875245
000040 cc 85 1e bf 6a c7 92 be 3e 2a 96 bf e3 93 a7 3e
       -0.6192291 -0.28667766 -1.1731641 0.32730016
000050 9d c7 3b bf e6 da ff be d1 cd 64 3f a3 85 f8 3d
       -0.7335146 -0.49971694 0.8937655 0.12134864
000060 f3 81 b5 3f e7 a2 81 bf 1d d4 f1 3e 72 ab a7 3f
       1.4180282 -1.0127839 0.47232142 1.3099196
000070 cd 6c af bf e6 dc e3 3f 8b a4 12 c0 bf 02 14 be
       -1.3705078 1.7801788 -2.291293 -0.14454173
000080 eb 67 1f 40 fc 8c 38 3f 4c d1 18 3f 1d a4 82 3f
       2.4907176 0.72090125 0.5969436 1.0206333
000090 00 2c b9 3f 8b 08 c3 bf b7 11 38 3d 93 32 17 bf
       1.4466553 -1.5236982 0.04493877 -0.59061545
0000a0 45 88 99 bf 87 bc 99 3f 4b ef 04 c0 b0 45 f1 bf
       -1.1994711 1.2010659 -2.0771053 -1.8849392
0000b0 50 91 a3 3e a1 b8 85 3f 0b 73 a3 3f 87 fc 92 3f
       0.31946802 1.0446969 1.2769483 1.1483315
0000c0 0f 72 cc 3f 13 d1 41 3d 51 6c f1 be 89 cf 12 c0
       1.5972308 0.04731853 -0.4715295 -2.293917
0000d0 af b0 3e bf 5e 3c 1b bf 57 e0 cf 3e 8e 3a e2 bf
       -0.7448835 -0.6063899 0.40600845 -1.767412
0000e0 06 dd 56 3f 8c 13 d1 be a6 05 8c 3f 52 22 fc bd
       0.83931005 -0.40835226 1.0939224 -0.123112336
0000f0 e0 84 26 bc 62 b9 12 bf 8d f9 2c 3e af 03 99 bf
       -0.010163516 -0.5731412 0.16892071 -1.1954249
000100 0a 3d 66 3f 53 f6 d4 be 27 66 a3 bf e7 5b 20 bf
       0.8993689 -0.4159418 -1.276555 -0.6264023
000110 f7 19 68 bd 8d b4 b9 3f 63 31 70 3f d8 0b fd 3f
       -0.056665387 1.4508225 0.9382536 1.976924
000120 cd 6b ce 3f 54 6d a8 3f b9 04 2b bf aa de 9a 3b
       1.6126648 1.3158364 -0.6680408 0.0047262507
000130 26 72 d2 3e 54 08 4a 3e a2 15 5d 3f 95 b2 b4 be
       0.41102713 0.1972974 0.86361134 -0.35292497
000140 96 b0 13 c0 38 5f 43 bf f6 89 d9 3f 0c ba 13 3f
       -2.307653 -0.7631717 1.6995227 0.5770576
000150 dc 6a de 3e 1b 23 d4 3f eb 77 92 3f d1 22 4b bf
       0.43440902 1.6573213 1.1442846 -0.7935
000160 21 e8 ea 3c 76 58 6b 3f 1f e4 96 bf e8 dd 11 c0
       0.02867514 0.91931856 -1.1788367 -2.279169
000170 b9 7a be bf 60 23 84 3f 69 f7 16 3f c5 fe c8 bf
       -1.4881202 1.0323296 0.5897127 -1.570275
000180 7c 5b 2c 3f 54 bf 79 be d2 f6 10 bf 22 ba 1d 3f
       0.67327094 -0.24389392 -0.5662662 0.6161214
000190 1c ae 16 40 fc 1d 82 3f fc d4 13 bf 99 5b 5e 3f
       2.3543768 1.01654 -0.57746863 0.86858517
0001a0 0b b1 3a c0 b9 01 9b 3f e7 e2 78 3f fa a9 96 3d
       -2.9170558 1.2109901 0.97221226 0.07356639
0001b0 11 2c 23 bf df 7b d9 bf 34 14 48 3f b7 76 81 3f
       -0.63739115 -1.6990927 0.7815583 1.0114354
0001c0 be a3 e8 3f 7b 52 00 3f 3a d3 3b 3f d5 4f a7 be
       1.817497 0.50125855 0.7336918 -0.32678095
0001d0 d1 73 8b 3d 76 13 66 be 31 66 40 bf a4 3c a2 bf
       0.068091996 -0.22468361 -0.7515593 -1.2674756
0001e0 16 ba 2c bf e1 58 16 3f 19 f9 5b 3f 83 3a a8 3f
       -0.67471445 0.5872937 0.8592697 1.3142856
0001f0 1f e9 3b 40 e3 bd 90 3e 5d 59 89 bf 37 b2 2c bf
       2.9361036 0.28269872 -1.0730397 -0.67459434
000200 64 d8 8b 3e 84 ee f2 3f 6d 66 23 bd eb d3 c4 3f
       0.2731353 1.8979039 -0.039892603 1.5377172

read_level_prob_1.weight f4 [150, 15]
000000 60 82 7a 3f 7c ca 0c be 5a c0 2c be ee ad 2f bf
       0.97855186 -0.13749117 -0.16870251 -0.6862477
000010 57 55 4c 3e cc 9d 13 be 4e a8 9e bf cc 39 05 3f
       0.1995443 -0.14415663 -1.2395113 0.52041316
000020 94 18 cc 3c d1 cc e8 be ce 59 fe be c9 ff cd be
       0.024914064 -0.45468763 -0.4967789 -0.4023421
000030 1d 5b 11 3f e9 99 aa be 49 75 6b 3f 84 c6 cd 3f
       0.5677965 -0.3332055 0.9197584 1.6076207
000040 4d e3 bc bd 4f 58 1b bd 13 3a 94 3f 31 66 c0 3b
       -0.09223042 -0.037926015 1.1580223 0.005871557
000050 31 e3 05 be ef ac 02 3f b4 69 47 3e 84 31 bb 3e
       -0.13074948 0.51045126 0.19473916 0.36561215
000060 ed ac e9 bc 5c 3c e5 3e 14 a9 89 3e 40 bc 14 3e
       -0.02852484 0.44772613 0.2688681 0.14524937
000070 63 5f bf bd 8e 72 d9 3e c0 ad 7b 3f 1f 90 a1 bb
       -0.093443654 0.4247021 0.98311996 -0.0049305107
000080 50 63 5d 3d 3e 03 71 bf c8 54 2f 3d fa 3d 87 3b
       0.05404979 -0.9414557 0.042805463 0.004127261
000090 eb 05 3b bf f8 e6 20 be 9a a8 8b 3c 86 1f 3b 3b
       -0.73055905 -0.15713108 0.017048169 0.0028552725
0000a0 6a 07 12 bf b5 8b 4d 3f 8a 7c 5d 3f ea ff 98 be
       -0.5704256 0.802913 0.86518157 -0.29882747
0000b0 6d 66 53 3f 22 6e f6 3f ea 33 46 be dd 93 b4 bd
       0.82578164 1.925236 -0.19355741 -0.08817265
0000c0 d4 d1 e4 3d 2d 70 2c 3e 8f 95 5e bd 3b 15 75 bf
       0.11172834 0.16839667 -0.05434185 -0.9573552
0000d0 87 23 1d 3e ab 02 ec 3d 2e 08 55 bf 86 bf 95 bd
       0.15345584 0.115239464 -0.83215606 -0.07311921
0000e0 f8 55 14 3f c3 3a 6e 3f c0 26 dc be e1 fa a2 3e
       0.5794368 0.93058413 -0.42998314 0.3183203
0000f0 bd 4b cd 3f 5f f1 77 3e dd 96 c8 3d 71 7d 18 40
       1.6038738 0.2421317 0.097944 2.3826563
000100 33 fc 5c 3e 12 15 bc bd 6a 57 a7 3f 54 b1 b1 3e
       0.21580581 -0.09183706 1.3073552 0.34705603
000110 f2 21 f2 3e 14 1c b7 3e 6c 92 1b 3f e0 b0 3d 3f
       0.47291523 0.3576361 0.607703 0.74098015
000120 f1 2c 28 3f b3 bc 01 be 9c a4 d2 3c 61 45 89 3f
       0.65693575 -0.1266964 0.025713257 1.0724298
000130 02 95 b9 bc 7b 7c 26 be 52 af 82 3e 80 b3 da 3d
       -0.02265406 -0.16258423 0.25524384 0.10678768
000140 87 8f cc bd a8 5b 5d bf 47 47 2d 3f 96 4e ca 3d
       -0.09988313 -0.8646798 0.67686886 0.0987827
000150 3a db 52 bf 46 e8 d1 be 0c 71 a5 3e 2b f9 f2 3e
       -0.82365763 -0.40997523 0.3231281 0.47455725
000160 a3 c1 c5 3c 51 30 11 3f 32 38 98 3f 41 29 8e bd
       0.024140185 0.5671435 1.189215 -0.06941462
000170 f1 68 e6 bd 3b f8 36 bf 60 6f 07 3e fc 7a b6 bc
       -0.11250485 -0.7147252 0.1322608 -0.02227544
000180 b8 29 87 bf 5d 68 a8 3e 80 87 b6 3d f7 65 37 bf
       -1.0559607 0.32892123 0.08912563 -0.7163996
000190 70 9f 09 bf af 5a 5e 3e 22 27 77 3f fb 83 bd be
       -0.5375891 0.2171428 0.96544087 -0.37014756
0001a0 80 be b8 3e 87 6c 7b bc 37 fd dd 3d 45 6f 7b 3c
       0.3608284 -0.015345699 0.108393125 0.015346353
0001b0 ac 6b cb 3e 77 fe b0 3e 07 b6 46 3e e6 7c c4 3e
       0.39730585 0.3456914 0.19405375 0.3837654
0001c0 6f 5f 01 3e 03 cf 23 bb 06 b3 f1 3e ed ae 0e be
       0.12634061 -0.0024995215 0.47206897 -0.13933916
0001d0 f7 82 1f 3f 2d 0d cf be 04 ee f0 be 6d c1 cd 3d
       0.6230921 -0.4043974 -0.47056592 0.10046659
0001e0 11 3d 3a 3f 66 1f 4e be 78 0e e5 bd fa f9 16 be
       0.7274943 -0.20129165 -0.111844 -0.14743796
0001f0 35 b7 1e 3e cf ea c3 bd 4a a0 5a 3e 04 b5 54 3d
       0.15499575 -0.095662706 0.21350208 0.051930442
000200 5c 8f 02 3e ff 03 07 be 3c 49 b4 3e d0 4f ac 3e
       0.1275 -0.13185118 0.35212123 0.33654642
000210 e0 79 6b 3e b4 8f a2 be 21 7e 4b 3e 2c 1b d4 3f
       0.2299571 -0.31750262 0.19872333 1.6570792
000220 91 b6 a3 bd f1 a8 b5 bd 7d d6 cd 3f 70 27 e3 bd
       -0.07993806 -0.08870114 1.6081082 -0.110915065
000230 05 26 42 be 6c af f8 3e 3c c5 b7 3e e2 e7 b2 3e
       -0.18959816 0.48571336 0.35892665 0.34942538
000240 55 22 c5 bd e4 24 28 3e f2 27 b3 3d 33 ee d7 3e
       -0.09625689 0.16420323 0.08747853 0.4217392
000250 85 f9 89 bd 6e 06 13 3f de 40 48 3f 48 03 81 3d
       -0.06737045 0.57431686 0.7822398 0.06299454
000260 e4 c5 b2 3c e0 37 92 3e 4f e4 ee 3e 45 e4 7a 3e
       0.021822877 0.28558254 0.4665856 0.2450114
000270 7c 00 ac 3e d3 8a a2 3d 99 1a ef bb db 00 0a 3f
       0.3359412 0.07936635 -0.007296872 0.53907555
000280 07 f1 0c bd ac 97 31 3f fa 9f 94 be 9f 57 25 bf
       -0.03440955 0.6937206 -0.29028302 -0.64586824
000290 57 01 ac 3d 8b f4 9d 3e d6 3f eb 3d 46 b7 6c bd
       0.08398693 0.30850634 0.11486785 -0.05779197
0002a0 65 2e 0b bf 04 a8 dd 3e 2e 2c 8a 3e 07 e4 fd be
       -0.5436767 0.43292248 0.2698683 -0.49588034
0002b0 90 c5 14 3e da 0c 6d bc 26 f1 da 3c 90 56 9c be
       0.14528489 -0.014468396 0.026726317 -0.30534792
0002c0 74 14 0e 3f 54 38 f2 3e e8 9d c4 be 61 3d 95 3d
       0.5549996 0.473086 -0.38401723 0.07287098
0002d0 7c 94 fa 3f 08 9b 8a 3e ab ac be bd 9c 19 c2 3f
       1.9576564 0.27071404 -0.093102776 1.5164065
0002e0 66 82 54 3e ee 08 bc bd e8 7a 83 3f 39 0a 2d 3f
       0.20752868 -0.09181391 1.0271883 0.67593724
0002f0 4c a9 e3 3e 49 52 d0 be 44 bf ae be 03 56 9a 3e
       0.444651 -0.4068778 -0.341303 0.30143747
000300 fa 77 d0 3e cf e9 4c be bb 00 42 3f 52 fe d4 3f
       0.40716535 -0.20011066 0.75782365 1.6640112
000310 8f a2 85 3e da 27 8a 3d 01 37 48 40 7a 5c 36 3e
       0.26100585 0.06745882 3.1283572 0.17808715
000320 6f 60 a9 bd e3 0b bc 3f 92 f4 81 3e 91 4a d8 3e
       -0.082703464 1.4691128 0.25381905 0.4224439
000330 23 ba 93 3e 6a 67 14 3f d1 ea 20 3f bb a1 26 3f
       0.2885295 0.579703 0.628583 0.6509053
000340 41 a3 59 bd 29 c1 8e be f6 ca 97 3f b0 42 85 3e
       -0.053134207 -0.27881745 1.1858814 0.2602744
000350 0c 23 80 3d e9 2e db 3f 7c aa 8d 3e b0 14 e9 bd
       0.06256685 1.7123691 0.27669132 -0.11380899
000360 81 a8 6f 3f ba b8 03 3f 52 84 01 3f 28 39 eb 3d
       0.9361649 0.51453745 0.5059253 0.11485511
000370 77 be 06 3e 30 b0 98 3e 00 70 01 3e f0 9b 8f be
       0.13158594 0.2982192 0.12640381 -0.28048658
000380 38 ef a3 3e a5 8e c6 3f 94 ee 69 3d 93 c5 25 3e
       0.32018447 1.5512282 0.05711229 0.1618865
000390 85 70 24 3f 35 a8 4e 3e e8 56 ea bc 53 1b 7c bf
       0.6423419 0.20181353 -0.028605893 -0.98479193
0003a0 77 01 5f be 3a 7f 17 3e a6 72 dc 3e 54 eb 7c 3d
       -0.21777903 0.14794627 0.4305622 0.061747864
0003b0 8b b1 31 3f f1 fc 2d 3f a4 31 b9 be c7 74 4f 3f
       0.69411534 0.6796408 -0.36170685 0.81037563
0003c0 57 26 8d 3e 1f aa 03 3e 33 65 28 bc 65 db 6a bf
       0.27568313 0.12857865 -0.010278034 -0.9174102
0003d0 f8 2c d6 3e 9c 96 53 3e af 70 59 be 17 94 a6 3d
       0.41831183 0.20662922 -0.21234392 0.08133715
0003e0 62 19 90 3b 0c 80 a3 3e 24 69 6c bf 95 76 db 3e
       0.004397557 0.3193363 -0.9234793 0.42863908
0003f0 36 14 a9 3d 94 c3 4c bd ea c4 0c 3e 56 c6 fd 3e
       0.08255808 -0.049991205 0.13746992 0.4956538

read_level_prob_1.bias f4 [150]
000000 f0 7d 26 bd ab ec a5 3c d2 a2 1f be 56 2b 44 bd
       -0.040647447 0.020254454 -0.15589455 -0.04789289
000010 f3 99 0c 3e e2 ff c3 bd 0a 9e 2a 3e 5a 4e 90 3d
       0.13730602 -0.0957029 0.1666185 0.070461944
000020 90 64 70 bd 85 d1 7f be 55 29 4c 3d 2b d0 2d be
       -0.058689654 -0.24982269 0.049844105 -0.16973941
000030 3f 84 be bc 98 e5 b5 ba 5f 0d c2 3c a5 54 03 be
       -0.02325642 -0.0013877628 0.023688016 -0.12825258
000040 26 dd a3 3d 63 58 50 be ee 1b 60 3e 0b 8f 8b bc
       0.08001165 -0.20346217 0.21885654 -0.017035982
000050 4e 0b fd 3c 18 9d c8 ba fb e9 50 bd ef 4c c4 3d
       0.03088918 -0.0015305607 -0.05100439 0.095849864
000060 2e 20 2c 3b ff 34 0c be 49 6a cf bd 8e 24 19 be
       0.0026264298 -0.13692091 -0.10127694 -0.14955351
000070 b1 ea 25 be bb 2a 70 ba ac 8a 38 3e 68 00 20 be
       -0.16202809 -0.0009161641 0.18021649 -0.15625155
000080 1a f3 33 3e 75 bb 8e 3d 4d b9 3f 3c a3 9b 78 3e
       0.17573205 0.06969348 0.011701894 0.2427812
000090 33 11 70 bc b5 e1 59 be c0 72 a0 bd b4 3f 66 bd
       -0.014652538 -0.21277507 -0.07834387 -0.056213096
0000a0 79 91 cc bd 33 cb 26 be aa 3a 8f be e3 25 c6 3c
       -0.09988684 -0.16288452 -0.27974445 0.024187988
0000b0 69 1b 5d be fc 7b d0 bd f1 a8 ca 3d 57 61 51 be
       -0.21592487 -0.10179898 0.09895504 -0.20447288
0000c0 8a 2e 26 bd 76 89 ad bd 70 59 6e 3e 6f 31 7a bc
       -0.040571727 -0.08473484 0.23276305 -0.015270575
0000d0 df 8c d6 3c 02 f2 df bc e9 7b d8 bd 5a 00 59 3a
       0.02619022 -0.027337078 -0.10570509 0.00082779455
0000e0 29 07 c9 3d ee 61 a6 bd 41 23 da 3d b0 07 e5 bd
       0.09815819 -0.08124147 0.106512554 -0.11183107
0000f0 9c 20 6f 3d a5 8a 3f be ba 6c a4 3d 59 bb f3 3d
       0.058380708 -0.18705232 0.080285504 0.11900968
000100 03 b1 a2 3d a9 50 1c bc 62 bd e9 3d 97 f3 09 be
       0.079439186 -0.009540715 0.11413075 -0.13471828
000110 ae 24 1d 3e a3 01 27 3e f9 47 18 be ab 80 40 3e
       0.15346023 0.16309218 -0.14871205 0.18799083
000120 31 37 61 bd d1 0f 4f be 1b 03 6e 3e a6 b2 4a be
       -0.054984275 -0.20220877 0.23243372 -0.19794711
000130 e1 41 73 be cf e9 b3 bd 88 08 92 bd fb 75 be 3d
       -0.237556 -0.0878483 -0.071305335 0.09299847
000140 5b e1 0f bd 23 61 5d 3d 43 b6 6d be e2 9e 84 bb
       -0.035127025 0.054047715 -0.23214059 -0.0040472606
000150 e9 e0 c1 3c f9 a3 4f be f5 b7 c6 bc c0 b5 81 be
       0.023666816 -0.20277394 -0.02425764 -0.25333977
000160 1a d3 89 bc 41 a8 48 be ea c7 1c 3e 86 1b 3c be
       -0.016824294 -0.19595434 0.15310636 -0.18369874
000170 6e 0e a9 3d 58 e9 1d be 73 c1 47 be 1e ee 11 3e
       0.08254705 -0.15421045 -0.19507389 0.14250991
000180 ad bc 30 be 94 eb df 3d 3b 7f 1b be 96 7d 44 3e
       -0.17259474 0.10933605 -0.15185253 0.19188532
000190 76 c5 e1 3d 33 5c ca bd 33 93 6b be f5 e2 5f be
       0.11023991 -0.09880867 -0.23005371 -0.21863921
0001a0 cb 41 4f be 56 c8 75 be 94 1c d1 3d be 01 c8 3d
       -0.20239942 -0.24002203 0.10210529 0.09765957
0001b0 ed 1f 6b 3c 1d 85 37 3e 1c da 4c 3e e1 ce bb bd
       0.014350873 0.17921872 0.20005077 -0.091703184
0001c0 69 3e 8b bd ca 9d 08 be 9c 2b 63 3e f8 2a 8f bd
       -0.06799013 -0.13341442 0.22184604 -0.069906175
0001d0 d1 8b 4e be e9 04 0c bd 0c fb 1e be c8 e0 ee bc
       -0.20170523 -0.03418437 -0.15525454 -0.029159918
0001e0 e9 c4 0a 3e 1d 62 ad 3d 74 6c 65 3e 03 fd da 3d
       0.13551678 0.08465979 0.22404653 0.106927894
0001f0 7d dd 8d bb 84 00 5e be f4 c4 12 3e 59 64 d3 3d
       -0.004329382 -0.21679884 0.14332944 0.10321874
000200 d2 22 7f be a5 5e 14 3e 2c 5f 66 bc a5 a8 a4 bd
       -0.24915627 0.14489229 -0.014060777 -0.08039979
000210 fb f7 32 be 14 68 49 3e 7b be 50 3e 50 03 6c 3e
       -0.1747741 0.19668609 0.20385163 0.23048139
000220 af fb 85 bd 26 3d 1e 3e 15 46 b7 3d 65 57 b7 3d
       -0.065421455 0.15453014 0.08948914 0.08952216
000230 7e 02 26 be 9d 64 40 3d 0d 7f fe bd 4e 69 26 be
       -0.16211888 0.046970952 -0.12426577 -0.16251108
000240 9c f8 6b 3d e8 9b 59 be fa 9f 77 3e d8 b1 24 bd
       0.05761014 -0.2125088 0.2418212 -0.040208668
000250 af ef c0 3d a2 d8 d5 3d
       0.09420716 0.1044171

norm_1.weight f4 [150]
000000 8c b9 5d 3f 67 f1 71 3f e1 a2 8a 3f f1 af 8b 3f
       0.8661125 0.94508976 1.0830957 1.0913068
000010 3b cb 87 3f 1f 69 76 3f 32 f3 8d 3f 52 cc 6d 3f
       1.0608896 0.9625415 1.1089842 0.92889893
000020 8f d2 4c 3f d5 28 7c 3f 94 c5 7e 3f 8e 05 81 3f
       0.80008787 0.98499805 0.9952023 1.007982
000030 7d dc 82 3f f5 1b 7f 3f e1 ff 7e 3f 4b a7 8d 3f
       1.0223538 0.99652034 0.9960919 1.1066679
000040 87 a5 8c 3f 41 10 5b 3f b8 db 71 3f 5b cd 8f 3f
       1.0988015 0.85571676 0.9447589 1.1234545
000050 03 31 85 3f 91 78 86 3f 54 ca 47 3f dd 5a 7e 3f
       1.0405582 1.0505544 0.78043103 0.99357396
000060 50 eb 47 3f ef e8 86 3f 4d 56 96 3f 51 7f 63 3f
       0.78093433 1.0539836 1.1745087 0.88866144
000070 8d 60 45 3f b6 54 84 3f 27 89 8f 3f 4c dd 6b 3f
       0.7710045 1.0338352 1.121373 0.9213455
000080 5e ea 7c 3f 7d e8 66 3f 9f df 68 3f 37 cb 6a 3f
       0.98795116 0.901985 0.9096622 0.9171633
000090 ad 2b 7a 3f 9f be 5c 3f 2b 32 79 3f 6b d6 96 3f
       0.97722894 0.86228365 0.97342175 1.1784185
0000a0 72 a2 6b 3f 2b e8 79 3f fd 24 87 3f ee 4a 56 3f
       0.92044747 0.97619885 1.0558163 0.83708084
0000b0 e6 f9 93 3f 37 6e 92 3f f5 15 6b 3f d4 6c 8f 3f
       1.1560638 1.1439885 0.9183038 1.1205087
0000c0 c2 75 4f 3f 3f ad 4a 3f 32 bb 8a 3f 2f 36 66 3f
       0.8103906 0.791706 1.0838377 0.8992643
0000d0 d6 5f 3b 3f 43 90 8f 3f 24 31 88 3f 22 b5 88 3f
       0.7319311 1.12159 1.0639997 1.0680277
0000e0 48 16 87 3f c8 c8 72 3f 3e 99 87 3f c5 a4 64 3f
       1.0553675 0.9483762 1.0593641 0.8931392
0000f0 c9 fc 7d 3f ab be 8d 3f ab f1 87 3f e4 25 5b 3f
       0.99213845 1.1073812 1.0620626 0.8560469
000100 3f 92 84 3f 4f 34 7a 3f c5 f0 78 3f 0d 83 50 3f
       1.0357131 0.97736067 0.97242385 0.8144997
000110 3b b8 59 3f da d6 80 3f 9a 88 4b 3f 0c 87 48 3f
       0.8504674 1.0065567 0.7950531 0.78331065
000120 52 23 56 3f 67 f5 6a 3f 76 5c 68 3f cc 4c 6f 3f
       0.83647645 0.91780704 0.90766084 0.9347656
000130 3e 9d 6a 3f ad 8b 80 3f 74 2d 7f 3f ed ae 85 3f
       0.9164618 1.0042626 0.9967873 1.0444008
000140 9e 84 71 3f 9c 01 79 3f 31 f3 56 3f fc 64 7f 3f
       0.9434298 0.9726808 0.8396483 0.99763465
000150 70 e4 86 3f 28 8e 73 3f 28 07 64 3f 8d 2a 86 3f
       1.0538464 0.9513879 0.8907342 1.0481735
000160 93 7b 53 3f 6d d0 86 3f 22 d2 84 3f c9 3b 83 3f
       0.82610434 1.0532357 1.0376627 1.025262
000170 92 89 70 3f 91 0d 62 3f 34 66 55 3f 38 54 92 3f
       0.93959916 0.8830195 0.83359075 1.1431952
000180 d1 e1 55 3f 88 83 87 3f e2 e6 6f 3f 82 0a 81 3f
       0.83547693 1.0587015 0.93711674 1.0081332
000190 5b df 6d 3f 40 90 59 3f 99 9a 84 3f 65 80 6f 3f
       0.9291894 0.84985733 1.035968 0.9355529
0001a0 94 51 6d 3f c8 cc 82 3f 78 c4 8c 3f 93 21 7a 3f
       0.92702603 1.0218744 1.0997458 0.9770748
0001b0 b5 87 57 3f fe 8b 79 3f 67 10 62 3f fc 81 71 3f
       0.8419145 0.97479236 0.8830628 0.94338965
0001c0 57 ff 81 3f 4f aa 62 3f c5 d0 5b 3f 98 65 5e 3f
       1.0156049 0.8854112 0.8586543 0.8687377
0001d0 89 61 6a 3f 72 3d 6b 3f bf ff 85 3f 8b 53 45 3f
       0.91555077 0.91890633 1.0468673 0.770806
0001e0 4c 66 58 3f 88 9d 6c 3f be 86 87 3f a9 9f 62 3f
       0.8453109 0.92427874 1.0587995 0.8852487
0001f0 51 73 7c 3f 05 02 66 3f 1b 28 65 3f d7 b1 5a 3f
       0.9861346 0.8984683 0.8951432 0.8542761
000200 f7 d8 86 3f 99 30 71 3f 5e 3c 85 3f ad 5a 63 3f
       1.0534962 0.9421478 1.0409048 0.88810235
000210 3b 7a 81 3f 4c 36 78 3f 41 60 81 3f c5 81 55 3f
       1.0115427 0.9695785 1.0107499 0.8340114
000220 7b bc 75 3f b2 4b 67 3f 8e 75 81 3f 82 55 8a 3f
       0.95990723 0.90349877 1.0114 1.0807345
000230 72 cb 75 3f 61 dc 57 3f 91 27 79 3f b0 e0 94 3f
       0.9601356 0.84320647 0.97326 1.1631069
000240 53 0a 6b 3f 12 ad 70 3f d8 06 63 3f ab 79 40 3f
       0.9181263 0.94014084 0.8868232 0.7518565
000250 32 ce 41 3f b1 35 7e 3f
       0.75705254 0.99300677

norm_1.bias f4 [150]
000000 7f 59 81 be d5 aa a2 bc 14 a9 b8 3c d0 98 7f bd
       -0.25263593 -0.01985685 0.02254156 -0.062401593
000010 26 dc 6f bd ae 1b 3e be 9c a9 00 be ac 44 41 be
       -0.05855956 -0.18565246 -0.12564701 -0.18873852
000020 09 e8 1b be 65 ad e4 3c d7 2f 3d be 4d 3c 44 be
       -0.15225233 0.027914712 -0.1847528 -0.19163628
000030 37 85 18 bd 9b 5b 37 be 8b 02 b3 bd 2e 37 94 bd
       -0.03723642 -0.17906038 -0.087407194 -0.07237087
000040 2b 41 2f bd fe a2 3d be 6d 35 0d be 07 f6 43 3d
       -0.04278676 -0.18519208 -0.13789912 0.04784205
000050 24 54 83 3c 05 c8 d1 bd 0c eb 76 be 67 fa 83 be
       0.016031332 -0.10243229 -0.24113101 -0.2577698
000060 10 7f 56 be 26 38 95 3c 7a 47 06 bd 4f 20 06 be
       -0.20946908 0.01821525 -0.03278301 -0.13098262
000070 90 8a 1d be 4d 95 4c be e4 69 e0 bd 5e 27 28 be
       -0.15384889 -0.19978829 -0.10957697 -0.16421267
000080 51 df 16 be d1 46 2a be a3 13 16 be 66 06 40 be
       -0.14733626 -0.16628577 -0.14655928 -0.18752441
000090 45 99 46 bd a6 e5 26 be f2 b1 93 bd 1d 58 4b bd
       -0.048486013 -0.16298541 -0.07211675 -0.04964458
0000a0 07 30 24 be be eb fe bd 36 e6 9a bd ab b5 85 be
       -0.16033946 -0.12447308 -0.075634405 -0.26115164
0000b0 8a ab 2f bd 84 2d 23 be 69 67 44 bd 4f bc b8 bd
       -0.0428882 -0.15935332 -0.047950182 -0.09020292
0000c0 9f 5c fe bd 55 73 56 be 46 68 03 be 2d de 3c be
       -0.1242001 -0.20942433 -0.12832746 -0.18444128
0000d0 dd d1 a9 be be 0b cc bd 45 15 89 bd 80 2c 05 be
       -0.33167925 -0.09963177 -0.0669351 -0.13005257
0000e0 4a 1f ca bd ba 8c 77 be 86 fa c6 bd 23 7a 06 be
       -0.09869249 -0.24174777 -0.09715752 -0.13132529
0000f0 76 01 c5 bd d8 a5 24 be 4f 76 e0 bd 78 06 5d be
       -0.09619419 -0.1607889 -0.109600656 -0.21584499
000100 a5 05 2c bd 53 c5 d1 bd b5 53 f2 bd e1 6b 65 be
       -0.04199757 -0.10242715 -0.11832372 -0.22404434
000110 d4 bd 46 be 71 fe 9e bd de ba e1 bd 78 f0 61 be
       -0.19408351 -0.077633746 -0.1102197 -0.22064388
000120 6a 38 08 be 06 bf 03 be 31 5a 29 be bb 69 5b be
       -0.1330277 -0.12865838 -0.16538312 -0.21427052
000130 df e8 67 be 88 3a 5c be f3 f6 0f be 48 1b 2a be
       -0.22647427 -0.21506703 -0.14059047 -0.1661197
000140 d7 3b 37 be c1 bb 0a be ae d5 8c 3b d3 fa b2 bd
       -0.17893921 -0.13548185 0.0042979335 -0.08739247
000150 1a 94 f0 bd ae 25 62 ba 7a 17 68 be 59 96 f8 bd
       -0.11746998 -0.00086268305 -0.22665206 -0.121380515
000160 6c b3 f4 bd 19 fa 1f bd 2c b1 91 bc 35 69 cc bd
       -0.119482845 -0.03905687 -0.017784677 -0.09981004
000170 23 09 5e be cc e8 3f be 11 b5 2e be 54 96 1b bd
       -0.21683173 -0.18741149 -0.17061259 -0.03798516
000180 76 01 16 be 00 6f cf bd 51 22 35 be 63 a5 88 bd
       -0.14648995 -0.101285934 -0.17688872 -0.0667217
000190 f4 43 57 be 20 f0 8c bd e7 66 e3 bc 95 79 c3 bd
       -0.21022016 -0.06881738 -0.027759029 -0.09544674
0001a0 ec 44 bc bd 88 d9 1c be 46 2a e7 bd 6d e0 1f be
       -0.09192833 -0.15317357 -0.1128736 -0.15612955
0001b0 f6 e4 65 be c8 cf 81 bd 06 95 75 bd e3 1b 2c be
       -0.22450623 -0.06338459 -0.059956573 -0.16807513
0001c0 41 11 b0 bd 64 21 2f be 12 f6 fa bd 92 9d fe bd
       -0.08597041 -0.17102581 -0.122539654 -0.12432398
0001d0 93 d3 a9 bd 3e 66 8e bd 2b 1a d0 bd 9e 1b 52 be
       -0.08292308 -0.06953095 -0.10161241 -0.20518348
0001e0 03 f0 90 be fa 12 f5 bc 88 0f 19 be 56 e1 9b bc
       -0.28308114 -0.029916275 -0.14947331 -0.019028347
0001f0 6d 5c 4a be 70 48 2d be fc 52 76 be 50 8a 8b be
       -0.1976182 -0.16922164 -0.24055094 -0.27253962
000200 51 3f b2 bd 81 e1 c5 bd ad 5f 2c be 64 a0 5d be
       -0.08703483 -0.09662152 -0.16833372 -0.21643215
000210 67 ad 51 bd 61 c7 3c be da de 4d be 70 b0 5f be
       -0.05119076 -0.18435432 -0.20104542 -0.2184465
000220 fb 41 9f bd 0a 3e 30 be f6 95 22 bd 95 40 1d be
       -0.07776257 -0.17211166 -0.039693795 -0.15356667
000230 82 cb d8 bd 18 69 3e be a7 d0 e5 3c c9 43 08 be
       -0.10585691 -0.18594778 0.028053595 -0.13307108
000240 59 f9 fb bd e9 d6 81 be e8 da 74 bd 75 f4 81 be
       -0.12303419 -0.25359276 -0.059779078 -0.25381818
000250 3f bd 97 be ee d8 bb bc
       -0.2963657 -0.022930589

norm_1.running_mean f4 [150]
000000 a4 d9 06 c2 4b 00 51 41 fa 35 0a 41 5f f3 8d c0
       -33.71254 13.062572 8.638178 -4.4359584
000010 35 79 35 42 ea 6d 90 c1 74 e6 c3 c0 a4 b9 d7 41
       45.368366 -18.053669 -6.1218815 26.965645
000020 89 1b 4e c1 a7 8e ed bf 90 45 09 42 65 e1 c6 41
       -12.881722 -1.8559159 34.317932 24.860056
000030 69 4a af 41 ea ea 17 42 14 10 2a 42 11 7b e1 41
       21.911333 37.97941 42.5157 28.185091
000040 e4 95 c6 41 02 f2 79 41 a5 e1 04 42 e3 c6 a4 41
       24.823189 15.621584 33.220356 20.597113
000050 a3 e9 8d 41 73 8b bf bc 68 c4 5e c2 fa ef 3a 42
       17.73908 -0.023381924 -55.691803 46.734352
000060 5a b8 32 c2 af 5a a9 41 9e 30 b5 41 40 16 1d c2
       -44.68003 21.16928 22.648739 -39.27173
000070 2c c2 55 c1 4e 38 e8 41 43 05 18 42 70 21 02 42
       -13.359905 29.027493 38.00514 32.532654
000080 95 76 12 42 9b 61 3b 42 fe 62 11 42 a4 ea ee 41
       36.615803 46.845318 36.346672 29.86457
000090 d0 2d 18 c2 97 60 b3 c0 6c e3 a7 41 f5 ef 03 42
       -38.04474 -5.6055408 20.986046 32.984333
0000a0 a9 7f 6e 41 7a 65 6e be ba 1b f0 41 f7 d8 c6 41
       14.906167 -0.23280898 30.013538 24.85594
0000b0 e9 23 d4 41 d7 98 0b 41 ed 3f b9 bf 31 31 10 42
       26.517534 8.724814 -1.4472634 36.04804
0000c0 2d 46 2b 41 e8 7e ba c1 74 c5 5c 41 62 8c 1c c1
       10.704633 -23.311966 13.798206 -9.784273
0000d0 17 25 10 c2 50 05 7a c1 28 35 c4 41 4c 4d d6 41
       -36.03622 -15.626297 24.525955 26.787743
0000e0 fd 5b 67 c1 80 6a ff 41 cc 0d e5 41 32 c6 03 42
       -14.459958 31.927002 28.631737 32.94355
0000f0 6b 61 d1 41 55 4c 08 42 15 d4 57 c1 78 90 e0 41
       26.172567 34.074543 -13.489278 28.070541
000100 32 a2 35 42 21 86 0f 42 29 0a 08 c2 18 ff 12 42
       45.408394 35.880985 -34.009922 36.749115
000110 a4 b2 14 42 71 b9 94 c1 df 89 ae c1 3c 4c db c1
       37.174454 -18.590548 -21.81732 -27.412224
000120 8d 96 3a c2 13 cd 15 42 9f 6a b1 41 ec fc b8 41
       -46.647022 37.450268 22.177061 23.123497
000130 ca 75 2a 42 2f 91 7b c1 53 8b 00 42 18 a1 0b 42
       42.61503 -15.722945 32.13606 34.90732
000140 a6 42 09 42 9a 18 1d 42 d5 32 82 c1 05 a1 ad 41
       34.315086 39.274025 -16.27482 21.703623
000150 d0 a3 c5 41 5b c0 ec 40 e5 0e 9a c1 b7 43 d5 41
       24.704987 7.398481 -19.257273 26.658064
000160 83 53 3d bf 41 1a 03 42 b8 26 f3 41 0a f9 1a 42
       -0.73955554 32.77564 30.393906 38.743202
000170 af 88 16 42 2f 78 f7 41 4f 0b 19 c2 2c 0d c8 41
       37.63348 30.933683 -38.261044 25.006432
000180 ed 40 0f c2 76 8b 7a 41 4f 15 09 41 61 d8 09 42
       -35.813404 15.659048 8.567702 34.461308
000190 9e b0 fa 41 37 43 12 c2 fc 7b 0a 41 b7 b2 e3 c0
       31.336239 -36.56564 8.65527 -7.115566
0001a0 9b 1e 3d 42 68 0b 21 42 14 35 08 42 ce 56 06 42
       47.27989 40.26114 34.051834 33.58477
0001b0 66 c3 15 42 28 5e 71 41 bc e8 b5 c1 9f 62 d1 41
       37.44082 15.085487 -22.73864 26.173155
0001c0 30 e3 5a 41 b0 35 e8 41 36 c5 1e 41 9f 17 6e c0
       13.680466 29.026215 9.923147 -3.7201917
0001d0 5c 04 2d 42 82 db 72 42 33 12 16 42 78 94 94 c1
       43.254257 60.714363 37.517773 -18.572495
0001e0 63 0b 69 41 1c 7a bd 41 f3 2f ec 41 8d 2a f8 c0
       14.56528 23.684624 29.523413 -7.755194
0001f0 3b 31 2f 42 34 b6 92 c1 6f 67 9c 41 66 b7 1b 42
       43.798077 -18.338966 19.550505 38.9291
000200 ac 3d 44 41 56 d6 c3 41 fa c4 8e 41 6b 06 00 42
       12.265057 24.479656 17.84618 32.006268
000210 dd b6 1d 40 9e 35 a1 41 59 93 04 42 c6 db 56 42
       2.464286 20.15118 33.143894 53.714622
000220 1d 68 bf 40 02 67 20 42 b7 12 d4 41 6c 3f fc 41
       5.981459 40.100594 26.509138 31.530968
000230 60 13 1b 42 50 8c 5f c2 ce d1 d7 3f d9 5d 8f 41
       38.76892 -55.887024 1.6860902 17.920824
000240 ac 78 39 42 35 60 f7 41 c9 a1 bb c1 76 72 22 42
       46.367844 30.921976 -23.453997 40.61178
000250 95 10 e0 41 4e b7 42 3f
       28.008097 0.7606095

norm_1.running_var f4 [150]
000000 2b 76 34 41 6b 65 06 41 c7 15 9d 40 1b ee c4 40
       11.27885 8.39976 4.9089084 6.1540656
000010 8e 53 12 41 5a cf f5 40 d2 17 a5 40 d2 9f eb 40
       9.145399 7.6815615 5.1591578 7.3632593
000020 42 2f bd 40 66 28 65 41 3e 59 3f 41 ba 2e 49 41
       5.912019 14.322363 11.959288 12.573908
000030 49 84 21 41 31 e4 e4 40 37 cd 2b 41 cc b5 c9 40
       10.094796 7.1528554 10.737601 6.303442
000040 b6 ec 04 41 0e f3 44 40 40 52 8c 41 6f 20 68 40
       8.307791 3.077335 17.540161 3.6269796
000050 d0 f7 2b 41 f1 18 ac 40 17 21 90 41 d0 79 b9 40
       10.748001 5.3780446 18.016157 5.7961197
000060 88 07 16 42 9b ee 8b 40 3b 1f 3a 40 9b c6 96 41
       37.507355 4.3728766 2.9081562 18.846975
000070 70 79 c3 40 b9 51 03 41 a5 55 5a 41 4e 15 9f 40
       6.108574 8.207452 13.645909 4.9713507
000080 1e b6 2b 41 33 ad d0 40 f1 ca c7 40 90 8f 56 41
       10.731962 6.5211425 6.243523 13.410049
000090 ae 02 a9 41 60 f9 9d 40 bf 87 45 41 2a 1b 64 40
       21.126308 4.9366913 12.345641 3.564158
0000a0 1a a2 ab 40 27 0c 74 40 cd 95 29 41 97 36 50 41
       5.363538 3.8132417 10.599072 13.013328
0000b0 3d 3a 69 40 fb c1 9a 40 76 d2 45 40 8d 2e 62 41
       3.6441796 4.8361793 3.0909705 14.136365
0000c0 7d a3 25 41 be f3 35 41 58 9e ad 40 c8 cc bc 40
       10.352414 11.372007 5.425579 5.8999977
0000d0 85 80 10 41 26 53 aa 40 ca b5 c4 40 93 c7 b6 40
       9.031377 5.32265 6.147191 5.711862
0000e0 1d 23 b2 40 02 ae 76 41 24 eb 0f 41 3b 42 15 41
       5.5667863 15.417482 8.994907 9.32867
0000f0 bc a5 5a 41 46 02 26 41 99 86 c2 40 61 d8 25 41
       13.6654625 10.375555 6.0789304 10.365327
000100 c4 a3 fb 40 ca 1c 6a 41 73 0d 1f 41 4e 60 2d 41
       7.863741 14.632029 9.9407835 10.836012
000110 50 15 13 41 71 a3 3f 41 4b 1d be 41 3d 9a 38 41
       9.192703 11.977403 23.764303 11.537656
000120 71 97 85 41 d4 9d 4f 41 fe 7b 22 41 6e 3b f3 40
       16.698946 12.976032 10.155272 7.6010046
000130 f4 07 17 41 0e 77 c8 40 bc 4b 94 41 0d 2c 30 41
       9.439442 6.264533 18.53698 11.010755
000140 45 d9 6f 41 45 e9 7c 41 ff c9 a5 41 5c 47 b9 40
       14.990544 15.806951 20.72363 5.789961
000150 02 5a d3 40 00 32 1d 41 52 72 d4 40 fa 9a 45 41
       6.6047373 9.824707 6.638955 12.350336
000160 7c 77 58 41 2e b1 fb 40 4c 4e 17 41 af 88 b8 41
       13.529171 7.8653784 9.456615 23.06674
000170 d4 58 d7 40 8f dc 13 41 b9 ea 8e 41 b6 70 82 40
       6.7295933 9.241347 17.86461 4.0762587
000180 7f f3 48 41 6f c5 30 40 4b 51 f5 40 4d 75 3c 41
       12.559447 2.7620504 7.6661735 11.778638
000190 1a 2e 78 41 b4 a5 eb 41 20 a3 30 40 3c 0d bf 40
       15.511255 29.45591 2.7599564 5.9703655
0001a0 fa 15 0a 41 4c 96 8b 41 0d cb 51 41 66 e2 45 41
       8.630365 17.448387 13.112073 12.367773
0001b0 dd ed 05 41 c5 b8 43 41 db 35 ec 41 f0 1e 11 41
       8.370572 12.23261 29.526297 9.070053
0001c0 dc 0a d9 40 1c c4 35 41 91 86 3a 41 09 86 34 40
       6.7825756 11.360378 11.657853 2.8206809
0001d0 eb 1d 03 41 81 f7 8b 41 33 3e 7f 41 a6 cf 49 41
       8.194804 17.495852 15.952685 12.613195
0001e0 81 c6 35 40 59 30 08 41 c6 5e 34 41 dd 84 c2 40
       2.8402407 8.511804 11.273138 6.0787187
0001f0 c9 61 35 41 59 d7 eb 40 95 36 e7 40 c5 d3 b2 41
       11.336373 7.3700376 7.225413 22.353403
000200 87 22 05 40 d2 f3 18 41 90 8c 10 40 55 7e 5a 41
       2.0802324 9.559526 2.2585793 13.655843
000210 4e 13 c8 40 6a 10 26 41 6c 24 79 41 db fd d3 41
       6.2523565 10.379007 15.571392 26.498953
000220 c5 ad 26 41 02 5a 02 41 64 a4 4c 41 6b a0 52 41
       10.417424 8.146975 12.790134 13.164165
000230 22 3f ac 41 c3 f5 a2 41 3f 94 0b 41 ba 90 65 40
       21.530827 20.37 8.723693 3.5869584
000240 9c 47 34 41 e2 e4 43 41 34 40 b7 41 ad 75 32 41
       11.267483 12.24338 22.90635 11.153729
000250 54 3b 87 41 31 2e 70 41
       16.903969 15.011277

read_level_prob_2.weight f4 [32, 150]
000000 70 8d b7 bd 11 65 6b 3c 02 56 bc bd b8 29 ff bd
       -0.08962524 0.014367358 -0.09196092 -0.12459129
000010 8b 76 85 bd e7 73 8a bd 99 8c 8a bd 13 57 83 bd
       -0.06516751 -0.06760388 -0.06765098 -0.064130925
000020 f1 2c b3 bd 23 17 05 be 19 e5 65 3c 0f ae e8 bc
       -0.08748806 -0.12997107 0.014031672 -0.02840331
000030 e7 3d 36 3c 15 fe 1b bd 05 85 0d bd 72 9b 09 3c
       0.011123157 -0.03808411 -0.034550685 0.008398877
000040 4f 17 ab bd f1 d7 20 bc 1d cd 02 bd b0 33 78 bd
       -0.08354055 -0.009817109 -0.031933893 -0.060596168
000050 82 1a b1 bc ad a6 1e bd bc b7 b1 bb 2c 43 1a bd
       -0.021619085 -0.038733173 -0.005423514 -0.037661716
000060 31 da 07 be 49 98 00 bd 8b 7d e9 bb a8 d1 c5 bc
       -0.13266827 -0.03139523 -0.0071255616 -0.024147823
000070 a4 d3 9d 3c fe 62 67 bd 15 b2 de bd f7 a1 e8 bd
       0.019265957 -0.05649089 -0.1087381 -0.11359017
000080 db ad f8 bd 64 d4 b4 bd ce 19 92 bd ee b1 aa 3c
       -0.12142535 -0.08829573 -0.07133828 0.020836797
000090 bd 18 b9 bd c6 b8 90 bd fd 6e b3 bd 5e 68 b9 bd
       -0.090379216 -0.07066493 -0.08761404 -0.090531096
0000a0 bb 79 0f bd db ba 55 bd f1 40 df bd 9b af 8d bc
       -0.0350282 -0.052180152 -0.109010585 -0.01729565
0000b0 55 e6 e4 bd 6f 69 e6 bd c1 ed cf bb 3b 38 bb bc
       -0.11176745 -0.112505786 -0.006345481 -0.022853961
0000c0 4d b8 f3 bd d0 76 04 be 63 62 86 bc 89 cf fa bc
       -0.11900387 -0.12935948 -0.016404336 -0.030616539
0000d0 43 35 e1 bd 5d f7 b9 bd 79 3f 07 be b0 6c 08 bc
       -0.10996487 -0.09080384 -0.13207807 -0.008326694
0000e0 5c c3 7c bd 1c 05 c2 bd 38 aa cf bd ec b4 a7 bd
       -0.061709747 -0.09473631 -0.101398885 -0.08188805
0000f0 95 5c 8c bd 04 e6 e1 bd 26 75 8e 3c a8 e3 f3 bd
       -0.06853596 -0.110302 0.017389845 -0.11908656
000100 be 85 c7 bc fd 68 bb bd 62 1a 4b bd 33 8c 30 bd
       -0.024355765 -0.09150884 -0.049585707 -0.043102454
000110 6d 71 15 bd 01 02 27 bd a9 d2 d4 bc 37 2c 86 3c
       -0.036485124 -0.040773395 -0.025979357 0.016378505
000120 87 1c ec bc 25 9a 06 be e8 3c 2b bd cd 0a cc bc
       -0.028822197 -0.13144739 -0.04180613 -0.024907494
000130 4f 61 ef bd 9b 43 44 bd 8a 97 cb bd 80 95 ac 3c
       -0.11688482 -0.047916036 -0.09941013 0.02106738
000140 68 04 f1 b9 32 da 70 bd 79 34 8a bd f9 d0 68 bd
       -0.00045970385 -0.058801837 -0.067482896 -0.056839917
000150 86 c0 75 bd 16 03 b7 bd 8f 7a e1 bd 70 64 69 bc
       -0.059998058 -0.089361355 -0.11009704 -0.014245138
000160 8d 0c ef bd cb dd e8 bd 75 3a ad bd 3e 0c 97 bd
       -0.11672316 -0.11370429 -0.084584154 -0.07375382
000170 10 0c 8e bd 10 15 ed bd 6d 1c 68 bd a1 c8 be bd
       -0.069358945 -0.11576283 -0.056667734 -0.09315611
000180 7b 72 08 be c9 cd bc bd 77 ca 35 3c 14 b3 d0 3b
       -0.13324921 -0.09218938 0.011095635 0.006369004
000190 49 dd fb bd 8e cf bb bd f1 8c e0 bc 10 86 e2 bd
       -0.12298066 -0.09170447 -0.027410956 -0.11060727
0001a0 ac be 3f bd af 60 6a bd 4a a2 b4 bc 27 d7 26 bd
       -0.0468127 -0.05722111 -0.022050042 -0.04073253
0001b0 27 8a 23 bd ab 2b 5d bd 25 27 ae bc 46 01 c3 bd
       -0.039926674 -0.053996723 -0.0212589 -0.09521727
0001c0 09 3a d7 bd 29 a9 f5 3b 00 ea 03 be f8 4e 2c bd
       -0.10509116 0.007496972 -0.12882233 -0.042067498
0001d0 ea 63 c1 bd 9f 07 f7 bd ec 9a 6c bd 0b 31 86 3c
       -0.09442885 -0.120620005 -0.057764933 0.016380807
0001e0 c1 0d b1 bd 4f 46 a1 bd 80 22 f8 3a 22 0a 06 be
       -0.086452015 -0.078747384 0.001893118 -0.13089803
0001f0 74 7a d7 bd 6e b9 0d bd 91 e5 fd 3b 15 ba fc bd
       -0.10521403 -0.034600668 0.0077483137 -0.1234018
000200 5c 08 04 bd 07 0f 34 bc ea 78 29 bd fe fa 1e 3c
       -0.032234535 -0.010989911 -0.04137508 0.009703396
000210 ab b2 0d bd 05 fd 13 bd c3 18 5f bd 0c 5d ca bd
       -0.03459422 -0.03612997 -0.054466974 -0.098810285
000220 fa 8c 91 bd ea 11 3a bd c6 b2 b6 bd e2 a6 9d 3c
       -0.07106967 -0.04542724 -0.08920817 0.019244615
000230 34 4e 09 be da 7e 4b 3b 00 d6 c5 bd 69 2a bb bd
       -0.13408738 0.0031050951 -0.09659958 -0.091389485
000240 89 5f 93 bd a9 cd 47 3c 91 96 63 3c 54 51 e8 bd
       -0.07195956 0.012195029 0.013890878 -0.11343637
000250 6a b5 01 be 2f b1 c0 bc 9c bb da bd 80 b5 db bd
       -0.1266686 -0.023521988 -0.10680315 -0.10727978
000260 18 2a fd bd ea 40 32 bd 03 e3 54 bc 16 14 2e 3c
       -0.12361544 -0.043518938 -0.012993577 0.010624906
000270 58 ef e5 bd 2d de f5 bb 4a 9e 1f bd a1 9f 28 bd
       -0.11227292 -0.007503292 -0.038969316 -0.04116786
000280 60 b1 c3 bc c8 1f 37 bc a5 43 f3 bb 54 ef 4c bd
       -0.02388829 -0.011177011 -0.0074238353 -0.05003293
000290 35 41 e0 bd 6e 9c 7d bd a7 f5 de bb 54 e5 0d be
       -0.10949937 -0.06191676 -0.0068041864 -0.13857013
0002a0 1a ce 17 bd 4a 00 cc bc 43 c3 c8 bd be 9f 07 be
       -0.03706179 -0.024902482 -0.09802868 -0.1324453
0002b0 77 58 90 bb 3e a7 35 bd 98 80 f7 bd 71 4a 0f bd
       -0.004405077 -0.044348948 -0.12085074 -0.034983102
0002c0 b3 7d 98 bd c2 09 ca bd 44 14 e6 bd e9 3f a4 bd
       -0.0744585 -0.098651424 -0.11234334 -0.080200024
0002d0 19 81 10 bd b2 51 0d bc 44 5f d7 bd f9 66 59 bd
       -0.035279367 -0.008625435 -0.10516217 -0.053076718
0002e0 1b 9b 69 bc d4 ef 5c 3b a3 27 05 be ac 2a 9c 3c
       -0.014258171 0.0033712285 -0.13003401 0.019063316
0002f0 d2 73 4a bd a5 eb 04 be fa 77 d4 bc 37 2c d0 bd
       -0.04942686 -0.12980516 -0.025936116 -0.10164683
000300 75 ac d4 bd 46 99 e6 bd c3 ba b5 bd ef 0a 86 3c
       -0.10384456 -0.11259703 -0.088735126 0.016362635
000310 9a 34 42 bd 92 9a 02 be 5d a3 0f bc 18 16 f7 bd
       -0.047413446 -0.12754276 -0.008766976 -0.12064761
000320 33 9e 7e bd 52 72 7c 3c ce 95 21 bd df f7 43 bd
       -0.06216259 0.015408115 -0.039449506 -0.04784381
000330 06 c7 fc bd dd 9f 94 bd 81 4d 73 bd ad 77 37 bd
       -0.12342648 -0.07257054 -0.059400085 -0.044791866
000340 30 02 0a be e1 c2 ac 3c e3 f3 e7 bd 4e 2e 27 bd
       -0.13477397 0.02108902 -0.113258146 -0.040815644
000350 16 a7 47 bd b9 9b b8 bd 48 04 b0 bd e4 31 fd bd
       -0.04874333 -0.09014077 -0.085945666 -0.123630315
000360 06 3e 2b bd b7 6d 87 bd 0f 27 79 bb 12 92 d1 bd
       -0.041807197 -0.06612723 -0.0038017666 -0.10232939
000370 2c 36 72 bc eb d0 d2 bd 8e e9 42 bc 52 4b 79 bd
       -0.014783423 -0.10293754 -0.011896504 -0.060862847
000380 47 51 f8 bc eb 4d 01 be 95 40 1f bd aa 90 5a bd
       -0.030312194 -0.1262738 -0.03887995 -0.05336062
000390 17 f4 db bd 86 c0 d8 3b 00 c5 55 bd fa f1 fb bc
       -0.10739916 0.0066147475 -0.052189827 -0.030755032
0003a0 02 70 b3 bd 24 ee 83 bd d5 45 1d 3c 61 58 5f bc
       -0.08761598 -0.06441906 0.009599169 -0.013631911
0003b0 e7 d9 77 bd 5d 4b 03 3a 44 28 89 bc c1 08 0b be
       -0.060510542 0.00050084834 -0.016742833 -0.13577558
0003c0 9f df 04 3b f2 7e 0f be 4d f7 c5 bb 41 4a 0d 3c
       0.002027489 -0.1401327 -0.0060414434 0.008623661
0003d0 88 55 8d bc 13 80 1f b8 34 ab fd bc 32 ac 11 be
       -0.017252699 -3.8027832e-05 -0.030965425 -0.14225844
0003e0 18 46 02 bd 03 08 cf bd 56 cf a5 3c 87 7c 95 bd
       -0.031805128 -0.1010895 0.020240467 -0.07299142
0003f0 3d e9 be bd e7 45 0f bc b2 85 8f bd b2 a3 10 be
       -0.093218304 -0.008744693 -0.07007922 -0.14124945

read_level_prob_2.bias f4 [32]
000000 15 52 b3 bd d8 99 da bd bf a7 db bd 2b 17 43 3d
       -0.0875589 -0.106738746 -0.107253544 0.047629517
000010 5f 95 0b bd 1d 0f be bc a4 37 41 3d ec b3 4a 3d
       -0.034078 -0.023200566 0.047172204 0.049487993
000020 d9 9a 03 3e 83 18 b0 bd cc 69 4c bd 23 b0 32 3a
       0.12852038 -0.08598425 -0.049905583 0.00068164075
000030 50 81 8c bd 1c 31 2c bd 4c a9 da bd d1 cd aa bd
       -0.06860602 -0.04203902 -0.10676822 -0.083400376
000040 07 40 9f bd d4 21 e1 bd fa 8e e7 3d 70 e6 0a be
       -0.07775884 -0.1099278 0.113065675 -0.13564467
000050 c8 0e 34 bc 54 d3 e4 bd 86 20 9e bc eb f8 ee b9
       -0.010989852 -0.1117312 -0.019302618 -0.00045580356
000060 e7 e3 a1 bd 8f 49 87 3d 55 fe ca bc c4 0c 58 3d
       -0.07904797 0.06605827 -0.024779478 0.05274655
000070 f5 1a 3b bc 65 b7 30 3d d7 83 a7 3d 17 ae db 3b
       -0.011420001 0.04314365 0.08179443 0.0067041027

read_level_prob_3.weight f4 [1, 32]
000000 8c 4d 0e bd c3 76 45 bd 0b 79 60 bb 4f a0 af bd
       -0.034741923 -0.048208963 -0.0034251835 -0.08575498
000010 3b ab ec 3d 32 8a 19 be 99 2f 2d be 24 dc 59 bd
       0.11556097 -0.14994124 -0.16912688 -0.053188458
000020 70 58 18 be 5f 25 1a bc 5d 3a c4 3d f4 74 2d ba
       -0.14877486 -0.009408324 0.095814444 -0.00066168536
000030 d3 c1 35 bd 4e 74 48 bd 2f 54 48 3d b1 6a 4e 3c
       -0.0443743 -0.04893904 0.04890841 0.012598679
000040 59 06 a7 3d a0 96 2b bd fc b9 2b be 93 31 ab 3d
       0.081555076 -0.041891694 -0.16770166 0.08359065
000050 9b 98 a3 3c 6c 02 ee bc e3 fa 9d 3b d7 38 b3 bd
       0.019970229 -0.02905389 0.004821168 -0.08751076
000060 2c 64 4b 3b 2d 86 74 be 0b 4f 61 bd 0f e3 05 be
       0.003103505 -0.23879309 -0.055007022 -0.13074897
000070 8d 2e e3 3d 4c ff 06 39 a9 9d 02 be 2c 81 38 bd
       0.11092863 0.00012874341 -0.12755455 -0.045045063
